…
est_dataset=1, topk=3, verbose=1) 
# The best NeuMF model will be saved to Pretrain/_GMF_94_[64,32,16,8]_1566391033.h5
--weights_path: Pretrain/_GMF_94_[64,32,16,8]_1566391033.h5
# Load data done [1.8 s]. #user=20000, #item=2000, #train=147903, #test=eval_recall
# __________________________________________________________________________________________________
# Layer (type)                    Output Shape         Param #     Connected to                     
# ==================================================================================================
# user_input (InputLayer)         (None, 1)            0                                            
# __________________________________________________________________________________________________
# item_input (InputLayer)         (None, 1)            0                                            
# __________________________________________________________________________________________________
# user_feature_input (InputLayer) (None, 1000)         0                                            
# __________________________________________________________________________________________________
# user_embedding (Embedding)      (None, 1, 94)        1880000     user_input[0][0]                 
# __________________________________________________________________________________________________
# item_embedding (Embedding)      (None, 1, 94)        188000      item_input[0][0]                 
# __________________________________________________________________________________________________
# feature_dense_layer (Dense)     (None, 128)          128128      user_feature_input[0][0]         
# __________________________________________________________________________________________________
# flatten_1 (Flatten)             (None, 94)           0           user_embedding[0][0]             
# __________________________________________________________________________________________________
# flatten_2 (Flatten)             (None, 94)           0           item_embedding[0][0]             
# __________________________________________________________________________________________________
# feature_dense_layer_bn (BatchNo (None, 128)          512         feature_dense_layer[0][0]        
# __________________________________________________________________________________________________
# multiply_1 (Multiply)           (None, 94)           0           flatten_1[0][0]                  
#                                                                  flatten_2[0][0]                  
# __________________________________________________________________________________________________
# leaky_re_lu_1 (LeakyReLU)       (None, 128)          0           feature_dense_layer_bn[0][0]     
# __________________________________________________________________________________________________
# concatenate_1 (Concatenate)     (None, 222)          0           multiply_1[0][0]                 
#                                                                  leaky_re_lu_1[0][0]              
# __________________________________________________________________________________________________
# prediction (Dense)              (None, 1)            223         concatenate_1[0][0]              
# ==================================================================================================
# Total params: 2,196,863
# Trainable params: 2,196,607
# Non-trainable params: 256
# __________________________________________________________________________________________________
# None
# 
# Performing k-fold 1
# Init: Recall = 0.0267, Jaccard score = 0.0197
…
est_dataset=1, topk=3, verbose=1) 
# The best NeuMF model will be saved to Pretrain/_GMF_94_[64,32,16,8]_1566391817.h5
--weights_path: Pretrain/_GMF_94_[64,32,16,8]_1566391817.h5
# Load data done [1.7 s]. #user=20000, #item=2000, #train=143502, #test=eval_recall
# __________________________________________________________________________________________________
# Layer (type)                    Output Shape         Param #     Connected to                     
# ==================================================================================================
# user_input (InputLayer)         (None, 1)            0                                            
# __________________________________________________________________________________________________
# item_input (InputLayer)         (None, 1)            0                                            
# __________________________________________________________________________________________________
# user_feature_input (InputLayer) (None, 1000)         0                                            
# __________________________________________________________________________________________________
# user_embedding (Embedding)      (None, 1, 94)        1880000     user_input[0][0]                 
# __________________________________________________________________________________________________
# item_embedding (Embedding)      (None, 1, 94)        188000      item_input[0][0]                 
# __________________________________________________________________________________________________
# feature_dense_layer (Dense)     (None, 128)          128128      user_feature_input[0][0]         
# __________________________________________________________________________________________________
# flatten_1 (Flatten)             (None, 94)           0           user_embedding[0][0]             
# __________________________________________________________________________________________________
# flatten_2 (Flatten)             (None, 94)           0           item_embedding[0][0]             
# __________________________________________________________________________________________________
# feature_dense_layer_bn (BatchNo (None, 128)          512         feature_dense_layer[0][0]        
# __________________________________________________________________________________________________
# multiply_1 (Multiply)           (None, 94)           0           flatten_1[0][0]                  
#                                                                  flatten_2[0][0]                  
# __________________________________________________________________________________________________
# leaky_re_lu_1 (LeakyReLU)       (None, 128)          0           feature_dense_layer_bn[0][0]     
# __________________________________________________________________________________________________
# concatenate_1 (Concatenate)     (None, 222)          0           multiply_1[0][0]                 
#                                                                  leaky_re_lu_1[0][0]              
# __________________________________________________________________________________________________
# final_dense_layer (Dense)       (None, 128)          28544       concatenate_1[0][0]              
# __________________________________________________________________________________________________
# final_dense_layer_bn (BatchNorm (None, 128)          512         final_dense_layer[0][0]          
# __________________________________________________________________________________________________
# leaky_re_lu_2 (LeakyReLU)       (None, 128)          0           final_dense_layer_bn[0][0]       
# __________________________________________________________________________________________________
# prediction (Dense)              (None, 1)            129         leaky_re_lu_2[0][0]              
# ==================================================================================================
# Total params: 2,225,825
# Trainable params: 2,225,313
# Non-trainable params: 512
# __________________________________________________________________________________________________
# None
# 
# Performing k-fold 1
# Init: Recall = 0.0245, Jaccard score = 0.0187
…
est_dataset=1, topk=3, verbose=1) 
# The best NeuMF model will be saved to Pretrain/_GMF_94_[64,32,16,8]_1566391990.h5
--weights_path: Pretrain/_GMF_94_[64,32,16,8]_1566391990.h5
# Load data done [1.7 s]. #user=20000, #item=2000, #train=143502, #test=eval_recall
# __________________________________________________________________________________________________
# Layer (type)                    Output Shape         Param #     Connected to                     
# ==================================================================================================
# user_input (InputLayer)         (None, 1)            0                                            
# __________________________________________________________________________________________________
# item_input (InputLayer)         (None, 1)            0                                            
# __________________________________________________________________________________________________
# user_feature_input (InputLayer) (None, 1000)         0                                            
# __________________________________________________________________________________________________
# user_embedding (Embedding)      (None, 1, 94)        1880000     user_input[0][0]                 
# __________________________________________________________________________________________________
# item_embedding (Embedding)      (None, 1, 94)        188000      item_input[0][0]                 
# __________________________________________________________________________________________________
# feature_dense_layer (Dense)     (None, 128)          128128      user_feature_input[0][0]         
# __________________________________________________________________________________________________
# flatten_1 (Flatten)             (None, 94)           0           user_embedding[0][0]             
# __________________________________________________________________________________________________
# flatten_2 (Flatten)             (None, 94)           0           item_embedding[0][0]             
# __________________________________________________________________________________________________
# feature_dense_layer_bn (BatchNo (None, 128)          512         feature_dense_layer[0][0]        
# __________________________________________________________________________________________________
# multiply_1 (Multiply)           (None, 94)           0           flatten_1[0][0]                  
#                                                                  flatten_2[0][0]                  
# __________________________________________________________________________________________________
# leaky_re_lu_1 (LeakyReLU)       (None, 128)          0           feature_dense_layer_bn[0][0]     
# __________________________________________________________________________________________________
# concatenate_1 (Concatenate)     (None, 222)          0           multiply_1[0][0]                 
#                                                                  leaky_re_lu_1[0][0]              
# __________________________________________________________________________________________________
# final_dense_layer (Dense)       (None, 256)          57088       concatenate_1[0][0]              
# __________________________________________________________________________________________________
# final_dense_layer_bn (BatchNorm (None, 256)          1024        final_dense_layer[0][0]          
# __________________________________________________________________________________________________
# leaky_re_lu_2 (LeakyReLU)       (None, 256)          0           final_dense_layer_bn[0][0]       
# __________________________________________________________________________________________________
# prediction (Dense)              (None, 1)            257         leaky_re_lu_2[0][0]              
# ==================================================================================================
# Total params: 2,255,009
# Trainable params: 2,254,241
# Non-trainable params: 768
# __________________________________________________________________________________________________
# None
# 
# Performing k-fold 1
# Init: Recall = 0.0279, Jaccard score = 0.0213
…
est_dataset=1, topk=3, verbose=1) 
# The best NeuMF model will be saved to Pretrain/_GMF_94_[64,32,16,8]_1566392298.h5
--weights_path: Pretrain/_GMF_94_[64,32,16,8]_1566392298.h5
# Load data done [1.7 s]. #user=20000, #item=2000, #train=143502, #test=eval_recall
# __________________________________________________________________________________________________
# Layer (type)                    Output Shape         Param #     Connected to                     
# ==================================================================================================
# user_input (InputLayer)         (None, 1)            0                                            
# __________________________________________________________________________________________________
# item_input (InputLayer)         (None, 1)            0                                            
# __________________________________________________________________________________________________
# user_feature_input (InputLayer) (None, 1000)         0                                            
# __________________________________________________________________________________________________
# user_embedding (Embedding)      (None, 1, 94)        1880000     user_input[0][0]                 
# __________________________________________________________________________________________________
# item_embedding (Embedding)      (None, 1, 94)        188000      item_input[0][0]                 
# __________________________________________________________________________________________________
# feature_dense_layer (Dense)     (None, 512)          512512      user_feature_input[0][0]         
# __________________________________________________________________________________________________
# flatten_1 (Flatten)             (None, 94)           0           user_embedding[0][0]             
# __________________________________________________________________________________________________
# flatten_2 (Flatten)             (None, 94)           0           item_embedding[0][0]             
# __________________________________________________________________________________________________
# feature_dense_layer_bn (BatchNo (None, 512)          2048        feature_dense_layer[0][0]        
# __________________________________________________________________________________________________
# multiply_1 (Multiply)           (None, 94)           0           flatten_1[0][0]                  
#                                                                  flatten_2[0][0]                  
# __________________________________________________________________________________________________
# leaky_re_lu_1 (LeakyReLU)       (None, 512)          0           feature_dense_layer_bn[0][0]     
# __________________________________________________________________________________________________
# concatenate_1 (Concatenate)     (None, 606)          0           multiply_1[0][0]                 
#                                                                  leaky_re_lu_1[0][0]              
# __________________________________________________________________________________________________
# final_dense_layer (Dense)       (None, 256)          155392      concatenate_1[0][0]              
# __________________________________________________________________________________________________
# final_dense_layer_bn (BatchNorm (None, 256)          1024        final_dense_layer[0][0]          
# __________________________________________________________________________________________________
# leaky_re_lu_2 (LeakyReLU)       (None, 256)          0           final_dense_layer_bn[0][0]       
# __________________________________________________________________________________________________
# prediction (Dense)              (None, 1)            257         leaky_re_lu_2[0][0]              
# ==================================================================================================
# Total params: 2,739,233
# Trainable params: 2,737,697
# Non-trainable params: 1,536
# __________________________________________________________________________________________________
# None
# 
# Performing k-fold 1
# Init: Recall = 0.0267, Jaccard score = 0.0204
…
est_dataset=1, topk=3, verbose=1) 
# The best NeuMF model will be saved to Pretrain/_GMF_94_[64,32,16,8]_1566392529.h5
--weights_path: Pretrain/_GMF_94_[64,32,16,8]_1566392529.h5
# Load data done [1.7 s]. #user=20000, #item=2000, #train=143502, #test=eval_recall
# __________________________________________________________________________________________________
# Layer (type)                    Output Shape         Param #     Connected to                     
# ==================================================================================================
# user_input (InputLayer)         (None, 1)            0                                            
# __________________________________________________________________________________________________
# item_input (InputLayer)         (None, 1)            0                                            
# __________________________________________________________________________________________________
# user_embedding (Embedding)      (None, 1, 94)        1880000     user_input[0][0]                 
# __________________________________________________________________________________________________
# item_embedding (Embedding)      (None, 1, 94)        188000      item_input[0][0]                 
# __________________________________________________________________________________________________
# flatten_1 (Flatten)             (None, 94)           0           user_embedding[0][0]             
# __________________________________________________________________________________________________
# flatten_2 (Flatten)             (None, 94)           0           item_embedding[0][0]             
# __________________________________________________________________________________________________
# multiply_1 (Multiply)           (None, 94)           0           flatten_1[0][0]                  
#                                                                  flatten_2[0][0]                  
# __________________________________________________________________________________________________
# user_feature_input (InputLayer) (None, 1000)         0                                            
# __________________________________________________________________________________________________
# concatenate_1 (Concatenate)     (None, 1094)         0           multiply_1[0][0]                 
#                                                                  user_feature_input[0][0]         
# __________________________________________________________________________________________________
# final_dense_layer (Dense)       (None, 256)          280320      concatenate_1[0][0]              
# __________________________________________________________________________________________________
# final_dense_layer_bn (BatchNorm (None, 256)          1024        final_dense_layer[0][0]          
# __________________________________________________________________________________________________
# leaky_re_lu_1 (LeakyReLU)       (None, 256)          0           final_dense_layer_bn[0][0]       
# __________________________________________________________________________________________________
# prediction (Dense)              (None, 1)            257         leaky_re_lu_1[0][0]              
# ==================================================================================================
# Total params: 2,349,601
# Trainable params: 2,349,089
# Non-trainable params: 512
# __________________________________________________________________________________________________
# None
# 
# Performing k-fold 1
# Init: Recall = 0.0268, Jaccard score = 0.0205
…
est_dataset=1, topk=3, verbose=1) 
# The best NeuMF model will be saved to Pretrain/_GMF_94_[64,32,16,8]_1566392698.h5
--weights_path: Pretrain/_GMF_94_[64,32,16,8]_1566392698.h5
# Load data done [1.7 s]. #user=20000, #item=2000, #train=143502, #test=eval_recall
# __________________________________________________________________________________________________
# Layer (type)                    Output Shape         Param #     Connected to                     
# ==================================================================================================
# user_input (InputLayer)         (None, 1)            0                                            
# __________________________________________________________________________________________________
# item_input (InputLayer)         (None, 1)            0                                            
# __________________________________________________________________________________________________
# user_feature_input (InputLayer) (None, 1000)         0                                            
# __________________________________________________________________________________________________
# user_embedding (Embedding)      (None, 1, 94)        1880000     user_input[0][0]                 
# __________________________________________________________________________________________________
# item_embedding (Embedding)      (None, 1, 94)        188000      item_input[0][0]                 
# __________________________________________________________________________________________________
# feature_dense_layer (Dense)     (None, 512)          512512      user_feature_input[0][0]         
# __________________________________________________________________________________________________
# flatten_1 (Flatten)             (None, 94)           0           user_embedding[0][0]             
# __________________________________________________________________________________________________
# flatten_2 (Flatten)             (None, 94)           0           item_embedding[0][0]             
# __________________________________________________________________________________________________
# feature_dense_layer_bn (BatchNo (None, 512)          2048        feature_dense_layer[0][0]        
# __________________________________________________________________________________________________
# multiply_1 (Multiply)           (None, 94)           0           flatten_1[0][0]                  
#                                                                  flatten_2[0][0]                  
# __________________________________________________________________________________________________
# leaky_re_lu_1 (LeakyReLU)       (None, 512)          0           feature_dense_layer_bn[0][0]     
# __________________________________________________________________________________________________
# concatenate_1 (Concatenate)     (None, 606)          0           multiply_1[0][0]                 
#                                                                  leaky_re_lu_1[0][0]              
# __________________________________________________________________________________________________
# final_dense_layer (Dense)       (None, 512)          310784      concatenate_1[0][0]              
# __________________________________________________________________________________________________
# final_dense_layer_bn (BatchNorm (None, 512)          2048        final_dense_layer[0][0]          
# __________________________________________________________________________________________________
# leaky_re_lu_2 (LeakyReLU)       (None, 512)          0           final_dense_layer_bn[0][0]       
# __________________________________________________________________________________________________
# prediction (Dense)              (None, 1)            513         leaky_re_lu_2[0][0]              
# ==================================================================================================
# Total params: 2,895,905
# Trainable params: 2,893,857
# Non-trainable params: 2,048
# __________________________________________________________________________________________________
# None
# 
# Performing k-fold 1
# Init: Recall = 0.0273, Jaccard score = 0.0208
…
est_dataset=1, topk=3, verbose=1) 
# The best NeuMF model will be saved to Pretrain/_GMF_94_[64,32,16,8]_1566393657.h5
--weights_path: Pretrain/_GMF_94_[64,32,16,8]_1566393657.h5
# Load data done [1.7 s]. #user=20000, #item=2000, #train=143502, #test=eval_recall
# __________________________________________________________________________________________________
# Layer (type)                    Output Shape         Param #     Connected to                     
# ==================================================================================================
# user_input (InputLayer)         (None, 1)            0                                            
# __________________________________________________________________________________________________
# item_input (InputLayer)         (None, 1)            0                                            
# __________________________________________________________________________________________________
# user_feature_input (InputLayer) (None, 1000)         0                                            
# __________________________________________________________________________________________________
# user_embedding (Embedding)      (None, 1, 94)        1880000     user_input[0][0]                 
# __________________________________________________________________________________________________
# item_embedding (Embedding)      (None, 1, 94)        188000      item_input[0][0]                 
# __________________________________________________________________________________________________
# feature_dense_layer (Dense)     (None, 256)          256256      user_feature_input[0][0]         
# __________________________________________________________________________________________________
# flatten_1 (Flatten)             (None, 94)           0           user_embedding[0][0]             
# __________________________________________________________________________________________________
# flatten_2 (Flatten)             (None, 94)           0           item_embedding[0][0]             
# __________________________________________________________________________________________________
# feature_dense_layer_bn (BatchNo (None, 256)          1024        feature_dense_layer[0][0]        
# __________________________________________________________________________________________________
# multiply_1 (Multiply)           (None, 94)           0           flatten_1[0][0]                  
#                                                                  flatten_2[0][0]                  
# __________________________________________________________________________________________________
# leaky_re_lu_1 (LeakyReLU)       (None, 256)          0           feature_dense_layer_bn[0][0]     
# __________________________________________________________________________________________________
# concatenate_1 (Concatenate)     (None, 350)          0           multiply_1[0][0]                 
#                                                                  leaky_re_lu_1[0][0]              
# __________________________________________________________________________________________________
# final_dense_layer (Dense)       (None, 96)           33696       concatenate_1[0][0]              
# __________________________________________________________________________________________________
# final_dense_layer_bn (BatchNorm (None, 96)           384         final_dense_layer[0][0]          
# __________________________________________________________________________________________________
# leaky_re_lu_2 (LeakyReLU)       (None, 96)           0           final_dense_layer_bn[0][0]       
# __________________________________________________________________________________________________
# prediction (Dense)              (None, 1)            97          leaky_re_lu_2[0][0]              
# ==================================================================================================
# Total params: 2,359,457
# Trainable params: 2,358,753
# Non-trainable params: 704
# __________________________________________________________________________________________________
# None
# 
# Performing k-fold 1
# Init: Recall = 0.0285, Jaccard score = 0.0218
…
est_dataset=1, topk=3, verbose=1) 
# The best NeuMF model will be saved to Pretrain/_GMF_94_[64,32,16,8]_1566393858.h5
--weights_path: Pretrain/_GMF_94_[64,32,16,8]_1566393858.h5
# Load data done [1.5 s]. #user=20000, #item=2000, #train=143502, #test=eval_recall
# __________________________________________________________________________________________________
# Layer (type)                    Output Shape         Param #     Connected to                     
# ==================================================================================================
# user_input (InputLayer)         (None, 1)            0                                            
# __________________________________________________________________________________________________
# item_input (InputLayer)         (None, 1)            0                                            
# __________________________________________________________________________________________________
# user_feature_input (InputLayer) (None, 1000)         0                                            
# __________________________________________________________________________________________________
# user_embedding (Embedding)      (None, 1, 94)        1880000     user_input[0][0]                 
# __________________________________________________________________________________________________
# item_embedding (Embedding)      (None, 1, 94)        188000      item_input[0][0]                 
# __________________________________________________________________________________________________
# feature_dense_layer (Dense)     (None, 128)          128128      user_feature_input[0][0]         
# __________________________________________________________________________________________________
# flatten_1 (Flatten)             (None, 94)           0           user_embedding[0][0]             
# __________________________________________________________________________________________________
# flatten_2 (Flatten)             (None, 94)           0           item_embedding[0][0]             
# __________________________________________________________________________________________________
# feature_dense_layer_bn (BatchNo (None, 128)          512         feature_dense_layer[0][0]        
# __________________________________________________________________________________________________
# multiply_1 (Multiply)           (None, 94)           0           flatten_1[0][0]                  
#                                                                  flatten_2[0][0]                  
# __________________________________________________________________________________________________
# leaky_re_lu_1 (LeakyReLU)       (None, 128)          0           feature_dense_layer_bn[0][0]     
# __________________________________________________________________________________________________
# concatenate_1 (Concatenate)     (None, 222)          0           multiply_1[0][0]                 
#                                                                  leaky_re_lu_1[0][0]              
# __________________________________________________________________________________________________
# final_dense_layer (Dense)       (None, 96)           21408       concatenate_1[0][0]              
# __________________________________________________________________________________________________
# final_dense_layer_bn (BatchNorm (None, 96)           384         final_dense_layer[0][0]          
# __________________________________________________________________________________________________
# leaky_re_lu_2 (LeakyReLU)       (None, 96)           0           final_dense_layer_bn[0][0]       
# __________________________________________________________________________________________________
# prediction (Dense)              (None, 1)            97          leaky_re_lu_2[0][0]              
# ==================================================================================================
# Total params: 2,218,529
# Trainable params: 2,218,081
# Non-trainable params: 448
# __________________________________________________________________________________________________
# None
# 
# Performing k-fold 1
# Init: Recall = 0.0297, Jaccard score = 0.0227
…
# GMF arguments: Namespace(batch_size=256, big_tag=0, dataset='', dataset_name_prepend='cold_0.0_', early_stopping=45, epochs=300, eval_recall=1, is_tag=1, layers='[64,32,16,8]', learner='adam', lr=0.001, mf_pretrain='', mlp_pretrain='', nn_model='GMF', num_factors=94, num_k_folds=1, num_neg=4, out=1, path='../data/', percentage=0.0, reg_layers='[0,0,0,0]', reg_mf=0, test_dataset=1, topk=3, verbose=1) 
# The best NeuMF model will be saved to Pretrain/_GMF_94_[64,32,16,8]_1566394040.h5
--weights_path: Pretrain/_GMF_94_[64,32,16,8]_1566394040.h5
# Load data done [1.7 s]. #user=20000, #item=2000, #train=143502, #test=eval_recall
# _________________________________________________________________
# Layer (type)                 Output Shape              Param #   
# =================================================================
# user_feature_input (InputLay (None, 1000)              0         
# _________________________________________________________________
# feature_dense_layer (Dense)  (None, 512)               512512    
# _________________________________________________________________
# feature_dense_layer_bn (Batc (None, 512)               2048      
# _________________________________________________________________
# leaky_re_lu_1 (LeakyReLU)    (None, 512)               0         
# _________________________________________________________________
# prediction (Dense)           (None, 1)                 513       
# =================================================================
# Total params: 515,073
# Trainable params: 514,049
# Non-trainable params: 1,024
# _________________________________________________________________
# None
# 
# Performing k-fold 1
# Init: Recall = 0.0295, Jaccard score = 0.0226
# Iteration 0 fit: [12.5 s]: Recall = 0.0285, Jaccard score = 0.0218, loss = 0.5075, eval: [6.8 s]
…
est_dataset=1, topk=3, verbose=1) 
# The best NeuMF model will be saved to Pretrain/_GMF_94_[64,32,16,8]_1566394114.h5
--weights_path: Pretrain/_GMF_94_[64,32,16,8]_1566394114.h5
# Load data done [1.8 s]. #user=20000, #item=2000, #train=143502, #test=eval_recall
# __________________________________________________________________________________________________
# Layer (type)                    Output Shape         Param #     Connected to                     
# ==================================================================================================
# user_feature_input (InputLayer) (None, 1000)         0                                            
# __________________________________________________________________________________________________
# item_input (InputLayer)         (None, 1)            0                                            
# __________________________________________________________________________________________________
# feature_dense_layer (Dense)     (None, 512)          512512      user_feature_input[0][0]         
# __________________________________________________________________________________________________
# item_embedding (Embedding)      (None, 1, 94)        188000      item_input[0][0]                 
# __________________________________________________________________________________________________
# feature_dense_layer_bn (BatchNo (None, 512)          2048        feature_dense_layer[0][0]        
# __________________________________________________________________________________________________
# flatten_2 (Flatten)             (None, 94)           0           item_embedding[0][0]             
# __________________________________________________________________________________________________
# leaky_re_lu_1 (LeakyReLU)       (None, 512)          0           feature_dense_layer_bn[0][0]     
# __________________________________________________________________________________________________
# concatenate_1 (Concatenate)     (None, 606)          0           flatten_2[0][0]                  
#                                                                  leaky_re_lu_1[0][0]              
# __________________________________________________________________________________________________
# prediction (Dense)              (None, 1)            607         concatenate_1[0][0]              
# ==================================================================================================
# Total params: 703,167
# Trainable params: 702,143
# Non-trainable params: 1,024
# __________________________________________________________________________________________________
# None
# 
# Performing k-fold 1
# Init: Recall = 0.0284, Jaccard score = 0.0217
…
est_dataset=1, topk=3, verbose=1) 
# The best NeuMF model will be saved to Pretrain/_GMF_94_[64,32,16,8]_1566394256.h5
--weights_path: Pretrain/_GMF_94_[64,32,16,8]_1566394256.h5
# Load data done [1.5 s]. #user=20000, #item=2000, #train=143502, #test=eval_recall
# __________________________________________________________________________________________________
# Layer (type)                    Output Shape         Param #     Connected to                     
# ==================================================================================================
# user_feature_input (InputLayer) (None, 1000)         0                                            
# __________________________________________________________________________________________________
# item_input (InputLayer)         (None, 1)            0                                            
# __________________________________________________________________________________________________
# feature_dense_layer (Dense)     (None, 512)          512512      user_feature_input[0][0]         
# __________________________________________________________________________________________________
# item_embedding (Embedding)      (None, 1, 94)        188000      item_input[0][0]                 
# __________________________________________________________________________________________________
# feature_dense_layer_bn (BatchNo (None, 512)          2048        feature_dense_layer[0][0]        
# __________________________________________________________________________________________________
# flatten_2 (Flatten)             (None, 94)           0           item_embedding[0][0]             
# __________________________________________________________________________________________________
# leaky_re_lu_1 (LeakyReLU)       (None, 512)          0           feature_dense_layer_bn[0][0]     
# __________________________________________________________________________________________________
# concatenate_1 (Concatenate)     (None, 606)          0           flatten_2[0][0]                  
#                                                                  leaky_re_lu_1[0][0]              
# __________________________________________________________________________________________________
# final_dense_layer (Dense)       (None, 96)           58272       concatenate_1[0][0]              
# __________________________________________________________________________________________________
# final_dense_layer_bn (BatchNorm (None, 96)           384         final_dense_layer[0][0]          
# __________________________________________________________________________________________________
# leaky_re_lu_2 (LeakyReLU)       (None, 96)           0           final_dense_layer_bn[0][0]       
# __________________________________________________________________________________________________
# prediction (Dense)              (None, 1)            97          leaky_re_lu_2[0][0]              
# ==================================================================================================
# Total params: 761,313
# Trainable params: 760,097
# Non-trainable params: 1,216
# __________________________________________________________________________________________________
# None
# 
# Performing k-fold 1
# Init: Recall = 0.0220, Jaccard score = 0.0167
…
est_dataset=1, topk=3, verbose=1) 
# The best NeuMF model will be saved to Pretrain/_GMF_94_[64,32,16,8]_1566462486.h5
--weights_path: Pretrain/_GMF_94_[64,32,16,8]_1566462486.h5
# Load data done [1.8 s]. #user=20000, #item=2000, #train=143502, #test=eval_recall
# __________________________________________________________________________________________________
# Layer (type)                    Output Shape         Param #     Connected to                     
# ==================================================================================================
# user_feature_input (InputLayer) (None, 1000)         0                                            
# __________________________________________________________________________________________________
# item_input (InputLayer)         (None, 1)            0                                            
# __________________________________________________________________________________________________
# feature_dense_layer (Dense)     (None, 512)          512512      user_feature_input[0][0]         
# __________________________________________________________________________________________________
# item_embedding (Embedding)      (None, 1, 94)        188000      item_input[0][0]                 
# __________________________________________________________________________________________________
# feature_dense_layer_bn (BatchNo (None, 512)          2048        feature_dense_layer[0][0]        
# __________________________________________________________________________________________________
# flatten_2 (Flatten)             (None, 94)           0           item_embedding[0][0]             
# __________________________________________________________________________________________________
# leaky_re_lu_1 (LeakyReLU)       (None, 512)          0           feature_dense_layer_bn[0][0]     
# __________________________________________________________________________________________________
# concatenate_1 (Concatenate)     (None, 606)          0           flatten_2[0][0]                  
#                                                                  leaky_re_lu_1[0][0]              
# __________________________________________________________________________________________________
# final_dense_layer (Dense)       (None, 256)          155392      concatenate_1[0][0]              
# __________________________________________________________________________________________________
# final_dense_layer_bn (BatchNorm (None, 256)          1024        final_dense_layer[0][0]          
# __________________________________________________________________________________________________
# leaky_re_lu_2 (LeakyReLU)       (None, 256)          0           final_dense_layer_bn[0][0]       
# __________________________________________________________________________________________________
# prediction (Dense)              (None, 1)            257         leaky_re_lu_2[0][0]              
# ==================================================================================================
# Total params: 859,233
# Trainable params: 857,697
# Non-trainable params: 1,536
# __________________________________________________________________________________________________
# None
# 
# Performing k-fold 1
# Init: Recall = 0.0253, Jaccard score = 0.0193
…
est_dataset=1, topk=3, verbose=1) 
# The best NeuMF model will be saved to Pretrain/_GMF_94_[64,32,16,8]_1566462709.h5
--weights_path: Pretrain/_GMF_94_[64,32,16,8]_1566462709.h5
# Load data done [1.7 s]. #user=20000, #item=2000, #train=143502, #test=eval_recall
# __________________________________________________________________________________________________
# Layer (type)                    Output Shape         Param #     Connected to                     
# ==================================================================================================
# user_feature_input (InputLayer) (None, 1000)         0                                            
# __________________________________________________________________________________________________
# item_input (InputLayer)         (None, 1)            0                                            
# __________________________________________________________________________________________________
# feature_dense_layer (Dense)     (None, 256)          256256      user_feature_input[0][0]         
# __________________________________________________________________________________________________
# item_embedding (Embedding)      (None, 1, 94)        188000      item_input[0][0]                 
# __________________________________________________________________________________________________
# feature_dense_layer_bn (BatchNo (None, 256)          1024        feature_dense_layer[0][0]        
# __________________________________________________________________________________________________
# flatten_2 (Flatten)             (None, 94)           0           item_embedding[0][0]             
# __________________________________________________________________________________________________
# leaky_re_lu_1 (LeakyReLU)       (None, 256)          0           feature_dense_layer_bn[0][0]     
# __________________________________________________________________________________________________
# concatenate_1 (Concatenate)     (None, 350)          0           flatten_2[0][0]                  
#                                                                  leaky_re_lu_1[0][0]              
# __________________________________________________________________________________________________
# final_dense_layer (Dense)       (None, 256)          89856       concatenate_1[0][0]              
# __________________________________________________________________________________________________
# final_dense_layer_bn (BatchNorm (None, 256)          1024        final_dense_layer[0][0]          
# __________________________________________________________________________________________________
# leaky_re_lu_2 (LeakyReLU)       (None, 256)          0           final_dense_layer_bn[0][0]       
# __________________________________________________________________________________________________
# prediction (Dense)              (None, 1)            257         leaky_re_lu_2[0][0]              
# ==================================================================================================
# Total params: 536,417
# Trainable params: 535,393
# Non-trainable params: 1,024
# __________________________________________________________________________________________________
# None
# 
# Performing k-fold 1
# Init: Recall = 0.0254, Jaccard score = 0.0194
…
est_dataset=1, topk=3, verbose=1) 
# The best NeuMF model will be saved to Pretrain/_GMF_94_[64,32,16,8]_1566462834.h5
--weights_path: Pretrain/_GMF_94_[64,32,16,8]_1566462834.h5
# Load data done [1.7 s]. #user=20000, #item=2000, #train=143502, #test=eval_recall
# __________________________________________________________________________________________________
# Layer (type)                    Output Shape         Param #     Connected to                     
# ==================================================================================================
# item_input (InputLayer)         (None, 1)            0                                            
# __________________________________________________________________________________________________
# item_embedding (Embedding)      (None, 1, 94)        188000      item_input[0][0]                 
# __________________________________________________________________________________________________
# flatten_2 (Flatten)             (None, 94)           0           item_embedding[0][0]             
# __________________________________________________________________________________________________
# user_feature_input (InputLayer) (None, 1000)         0                                            
# __________________________________________________________________________________________________
# concatenate_1 (Concatenate)     (None, 1094)         0           flatten_2[0][0]                  
#                                                                  user_feature_input[0][0]         
# __________________________________________________________________________________________________
# final_dense_layer (Dense)       (None, 256)          280320      concatenate_1[0][0]              
# __________________________________________________________________________________________________
# final_dense_layer_bn (BatchNorm (None, 256)          1024        final_dense_layer[0][0]          
# __________________________________________________________________________________________________
# leaky_re_lu_1 (LeakyReLU)       (None, 256)          0           final_dense_layer_bn[0][0]       
# __________________________________________________________________________________________________
# prediction (Dense)              (None, 1)            257         leaky_re_lu_1[0][0]              
# ==================================================================================================
# Total params: 469,601
# Trainable params: 469,089
# Non-trainable params: 512
# __________________________________________________________________________________________________
# None
# 
# Performing k-fold 1
# Init: Recall = 0.0249, Jaccard score = 0.0190
…
est_dataset=1, topk=3, verbose=1) 
# The best NeuMF model will be saved to Pretrain/_GMF_94_[64,32,16,8]_1566463164.h5
--weights_path: Pretrain/_GMF_94_[64,32,16,8]_1566463164.h5
# Load data done [1.6 s]. #user=20000, #item=2000, #train=143502, #test=eval_recall
# __________________________________________________________________________________________________
# Layer (type)                    Output Shape         Param #     Connected to                     
# ==================================================================================================
# user_feature_input (InputLayer) (None, 1000)         0                                            
# __________________________________________________________________________________________________
# item_input (InputLayer)         (None, 1)            0                                            
# __________________________________________________________________________________________________
# feature_dense_layer (Dense)     (None, 1000)         1001000     user_feature_input[0][0]         
# __________________________________________________________________________________________________
# item_embedding (Embedding)      (None, 1, 94)        188000      item_input[0][0]                 
# __________________________________________________________________________________________________
# feature_dense_layer_bn (BatchNo (None, 1000)         4000        feature_dense_layer[0][0]        
# __________________________________________________________________________________________________
# flatten_2 (Flatten)             (None, 94)           0           item_embedding[0][0]             
# __________________________________________________________________________________________________
# leaky_re_lu_1 (LeakyReLU)       (None, 1000)         0           feature_dense_layer_bn[0][0]     
# __________________________________________________________________________________________________
# concatenate_1 (Concatenate)     (None, 1094)         0           flatten_2[0][0]                  
#                                                                  leaky_re_lu_1[0][0]              
# __________________________________________________________________________________________________
# final_dense_layer (Dense)       (None, 256)          280320      concatenate_1[0][0]              
# __________________________________________________________________________________________________
# final_dense_layer_bn (BatchNorm (None, 256)          1024        final_dense_layer[0][0]          
# __________________________________________________________________________________________________
# leaky_re_lu_2 (LeakyReLU)       (None, 256)          0           final_dense_layer_bn[0][0]       
# __________________________________________________________________________________________________
# prediction (Dense)              (None, 1)            257         leaky_re_lu_2[0][0]              
# ==================================================================================================
# Total params: 1,474,601
# Trainable params: 1,472,089
# Non-trainable params: 2,512
# __________________________________________________________________________________________________
# None
# 
# Performing k-fold 1
# Init: Recall = 0.0212, Jaccard score = 0.0161
…
est_dataset=1, topk=3, verbose=1) 
# The best NeuMF model will be saved to Pretrain/_GMF_94_[64,32,16,8]_1566463428.h5
--weights_path: Pretrain/_GMF_94_[64,32,16,8]_1566463428.h5
# Load data done [2.0 s]. #user=20000, #item=2000, #train=143502, #test=eval_recall
# __________________________________________________________________________________________________
# Layer (type)                    Output Shape         Param #     Connected to                     
# ==================================================================================================
# user_input (InputLayer)         (None, 1)            0                                            
# __________________________________________________________________________________________________
# item_input (InputLayer)         (None, 1)            0                                            
# __________________________________________________________________________________________________
# user_embedding (Embedding)      (None, 1, 94)        1880000     user_input[0][0]                 
# __________________________________________________________________________________________________
# item_embedding (Embedding)      (None, 1, 94)        188000      item_input[0][0]                 
# __________________________________________________________________________________________________
# flatten_1 (Flatten)             (None, 94)           0           user_embedding[0][0]             
# __________________________________________________________________________________________________
# flatten_2 (Flatten)             (None, 94)           0           item_embedding[0][0]             
# __________________________________________________________________________________________________
# multiply_1 (Multiply)           (None, 94)           0           flatten_1[0][0]                  
#                                                                  flatten_2[0][0]                  
# __________________________________________________________________________________________________
# user_feature_input (InputLayer) (None, 1000)         0                                            
# __________________________________________________________________________________________________
# concatenate_1 (Concatenate)     (None, 1188)         0           multiply_1[0][0]                 
#                                                                  flatten_2[0][0]                  
#                                                                  user_feature_input[0][0]         
# __________________________________________________________________________________________________
# final_dense_layer (Dense)       (None, 256)          304384      concatenate_1[0][0]              
# __________________________________________________________________________________________________
# final_dense_layer_bn (BatchNorm (None, 256)          1024        final_dense_layer[0][0]          
# __________________________________________________________________________________________________
# leaky_re_lu_1 (LeakyReLU)       (None, 256)          0           final_dense_layer_bn[0][0]       
# __________________________________________________________________________________________________
# prediction (Dense)              (None, 1)            257         leaky_re_lu_1[0][0]              
# ==================================================================================================
# Total params: 2,373,665
# Trainable params: 2,373,153
# Non-trainable params: 512
# __________________________________________________________________________________________________
# None
# 
# Performing k-fold 1
# Init: Recall = 0.0294, Jaccard score = 0.0225
…
est_dataset=1, topk=3, verbose=1) 
# The best NeuMF model will be saved to Pretrain/_GMF_94_[64,32,16,8]_1566463880.h5
--weights_path: Pretrain/_GMF_94_[64,32,16,8]_1566463880.h5
# Load data done [1.7 s]. #user=20000, #item=2000, #train=143502, #test=eval_recall
# __________________________________________________________________________________________________
# Layer (type)                    Output Shape         Param #     Connected to                     
# ==================================================================================================
# item_input (InputLayer)         (None, 1)            0                                            
# __________________________________________________________________________________________________
# item_embedding (Embedding)      (None, 1, 94)        188000      item_input[0][0]                 
# __________________________________________________________________________________________________
# flatten_2 (Flatten)             (None, 94)           0           item_embedding[0][0]             
# __________________________________________________________________________________________________
# user_feature_input (InputLayer) (None, 1000)         0                                            
# __________________________________________________________________________________________________
# user_input (InputLayer)         (None, 1)            0                                            
# __________________________________________________________________________________________________
# concatenate_1 (Concatenate)     (None, 1094)         0           flatten_2[0][0]                  
#                                                                  user_feature_input[0][0]         
# __________________________________________________________________________________________________
# user_embedding (Embedding)      (None, 1, 94)        1880000     user_input[0][0]                 
# __________________________________________________________________________________________________
# user_feature_item_latent (Dense (None, 256)          280320      concatenate_1[0][0]              
# __________________________________________________________________________________________________
# flatten_1 (Flatten)             (None, 94)           0           user_embedding[0][0]             
# __________________________________________________________________________________________________
# user_feature_item_latent_bn (Ba (None, 256)          1024        user_feature_item_latent[0][0]   
# __________________________________________________________________________________________________
# multiply_1 (Multiply)           (None, 94)           0           flatten_1[0][0]                  
#                                                                  flatten_2[0][0]                  
# __________________________________________________________________________________________________
# leaky_re_lu_1 (LeakyReLU)       (None, 256)          0           user_feature_item_latent_bn[0][0]
# __________________________________________________________________________________________________
# concatenate_2 (Concatenate)     (None, 350)          0           multiply_1[0][0]                 
#                                                                  leaky_re_lu_1[0][0]              
# __________________________________________________________________________________________________
# final_dense_layer (Dense)       (None, 256)          89856       concatenate_2[0][0]              
# __________________________________________________________________________________________________
# final_dense_layer_bn (BatchNorm (None, 256)          1024        final_dense_layer[0][0]          
# __________________________________________________________________________________________________
# leaky_re_lu_2 (LeakyReLU)       (None, 256)          0           final_dense_layer_bn[0][0]       
# __________________________________________________________________________________________________
# prediction (Dense)              (None, 1)            257         leaky_re_lu_2[0][0]              
# ==================================================================================================
# Total params: 2,440,481
# Trainable params: 2,439,457
# Non-trainable params: 1,024
# __________________________________________________________________________________________________
# None
# 
# Performing k-fold 1
# Init: Recall = 0.0265, Jaccard score = 0.0202
…
est_dataset=1, topk=3, verbose=1) 
# The best NeuMF model will be saved to Pretrain/_GMF_94_[64,32,16,8]_1566464639.h5
--weights_path: Pretrain/_GMF_94_[64,32,16,8]_1566464639.h5
# Load data done [1.7 s]. #user=20000, #item=2000, #train=143502, #test=eval_recall
# __________________________________________________________________________________________________
# Layer (type)                    Output Shape         Param #     Connected to                     
# ==================================================================================================
# item_input (InputLayer)         (None, 1)            0                                            
# __________________________________________________________________________________________________
# item_embedding (Embedding)      (None, 1, 94)        188000      item_input[0][0]                 
# __________________________________________________________________________________________________
# flatten_2 (Flatten)             (None, 94)           0           item_embedding[0][0]             
# __________________________________________________________________________________________________
# user_feature_input (InputLayer) (None, 1000)         0                                            
# __________________________________________________________________________________________________
# user_input (InputLayer)         (None, 1)            0                                            
# __________________________________________________________________________________________________
# concatenate_1 (Concatenate)     (None, 1094)         0           flatten_2[0][0]                  
#                                                                  user_feature_input[0][0]         
# __________________________________________________________________________________________________
# user_embedding (Embedding)      (None, 1, 94)        1880000     user_input[0][0]                 
# __________________________________________________________________________________________________
# user_feature_item_latent (Dense (None, 512)          560640      concatenate_1[0][0]              
# __________________________________________________________________________________________________
# flatten_1 (Flatten)             (None, 94)           0           user_embedding[0][0]             
# __________________________________________________________________________________________________
# user_feature_item_latent_bn (Ba (None, 512)          2048        user_feature_item_latent[0][0]   
# __________________________________________________________________________________________________
# multiply_1 (Multiply)           (None, 94)           0           flatten_1[0][0]                  
#                                                                  flatten_2[0][0]                  
# __________________________________________________________________________________________________
# leaky_re_lu_1 (LeakyReLU)       (None, 512)          0           user_feature_item_latent_bn[0][0]
# __________________________________________________________________________________________________
# concatenate_2 (Concatenate)     (None, 606)          0           multiply_1[0][0]                 
#                                                                  leaky_re_lu_1[0][0]              
# __________________________________________________________________________________________________
# final_dense_layer (Dense)       (None, 256)          155392      concatenate_2[0][0]              
# __________________________________________________________________________________________________
# final_dense_layer_bn (BatchNorm (None, 256)          1024        final_dense_layer[0][0]          
# __________________________________________________________________________________________________
# leaky_re_lu_2 (LeakyReLU)       (None, 256)          0           final_dense_layer_bn[0][0]       
# __________________________________________________________________________________________________
# prediction (Dense)              (None, 1)            257         leaky_re_lu_2[0][0]              
# ==================================================================================================
# Total params: 2,787,361
# Trainable params: 2,785,825
# Non-trainable params: 1,536
# __________________________________________________________________________________________________
# None
# 
# Performing k-fold 1
# Init: Recall = 0.0288, Jaccard score = 0.0220
…
est_dataset=1, topk=3, verbose=1) 
# The best NeuMF model will be saved to Pretrain/_GMF_94_[64,32,16,8]_1566464806.h5
--weights_path: Pretrain/_GMF_94_[64,32,16,8]_1566464806.h5
# Load data done [1.7 s]. #user=20000, #item=2000, #train=143502, #test=eval_recall
# __________________________________________________________________________________________________
# Layer (type)                    Output Shape         Param #     Connected to                     
# ==================================================================================================
# item_input (InputLayer)         (None, 1)            0                                            
# __________________________________________________________________________________________________
# item_embedding (Embedding)      (None, 1, 94)        188000      item_input[0][0]                 
# __________________________________________________________________________________________________
# flatten_2 (Flatten)             (None, 94)           0           item_embedding[0][0]             
# __________________________________________________________________________________________________
# user_feature_input (InputLayer) (None, 1000)         0                                            
# __________________________________________________________________________________________________
# user_input (InputLayer)         (None, 1)            0                                            
# __________________________________________________________________________________________________
# concatenate_1 (Concatenate)     (None, 1094)         0           flatten_2[0][0]                  
#                                                                  user_feature_input[0][0]         
# __________________________________________________________________________________________________
# user_embedding (Embedding)      (None, 1, 94)        1880000     user_input[0][0]                 
# __________________________________________________________________________________________________
# user_feature_item_latent (Dense (None, 512)          560640      concatenate_1[0][0]              
# __________________________________________________________________________________________________
# flatten_1 (Flatten)             (None, 94)           0           user_embedding[0][0]             
# __________________________________________________________________________________________________
# user_feature_item_latent_bn (Ba (None, 512)          2048        user_feature_item_latent[0][0]   
# __________________________________________________________________________________________________
# multiply_1 (Multiply)           (None, 94)           0           flatten_1[0][0]                  
#                                                                  flatten_2[0][0]                  
# __________________________________________________________________________________________________
# leaky_re_lu_1 (LeakyReLU)       (None, 512)          0           user_feature_item_latent_bn[0][0]
# __________________________________________________________________________________________________
# concatenate_2 (Concatenate)     (None, 606)          0           multiply_1[0][0]                 
#                                                                  leaky_re_lu_1[0][0]              
# __________________________________________________________________________________________________
# final_dense_layer (Dense)       (None, 96)           58272       concatenate_2[0][0]              
# __________________________________________________________________________________________________
# final_dense_layer_bn (BatchNorm (None, 96)           384         final_dense_layer[0][0]          
# __________________________________________________________________________________________________
# leaky_re_lu_2 (LeakyReLU)       (None, 96)           0           final_dense_layer_bn[0][0]       
# __________________________________________________________________________________________________
# prediction (Dense)              (None, 1)            97          leaky_re_lu_2[0][0]              
# ==================================================================================================
# Total params: 2,689,441
# Trainable params: 2,688,225
# Non-trainable params: 1,216
# __________________________________________________________________________________________________
# None
# 
# Performing k-fold 1
# Init: Recall = 0.0246, Jaccard score = 0.0187
…
