…
est_dataset=1, topk=3, verbose=1) 
# The best NeuMF model will be saved to Pretrain/_GMF_94_[64,32,16,8]_1566560345.h5
--weights_path: Pretrain/_GMF_94_[64,32,16,8]_1566560345.h5
# Load data done [1.5 s]. #user=20000, #item=2000, #train=143502, #test=eval_recall
# __________________________________________________________________________________________________
# Layer (type)                    Output Shape         Param #     Connected to                     
# ==================================================================================================
# user_input (InputLayer)         (None, 1)            0                                            
# __________________________________________________________________________________________________
# user_embedding (Embedding)      (None, 1, 94)        1880000     user_input[0][0]                 
# __________________________________________________________________________________________________
# flatten_1 (Flatten)             (None, 94)           0           user_embedding[0][0]             
# __________________________________________________________________________________________________
# user_feature_input (InputLayer) (None, 1000)         0                                            
# __________________________________________________________________________________________________
# concatenate_1 (Concatenate)     (None, 1094)         0           flatten_1[0][0]                  
#                                                                  user_feature_input[0][0]         
# __________________________________________________________________________________________________
# user_feature_item_latent1 (Dens (None, 94)           102930      concatenate_1[0][0]              
# __________________________________________________________________________________________________
# item_input (InputLayer)         (None, 1)            0                                            
# __________________________________________________________________________________________________
# user_feature_item_latent_bn1 (B (None, 94)           376         user_feature_item_latent1[0][0]  
# __________________________________________________________________________________________________
# item_embedding (Embedding)      (None, 1, 94)        188000      item_input[0][0]                 
# __________________________________________________________________________________________________
# leaky_re_lu_1 (LeakyReLU)       (None, 94)           0           user_feature_item_latent_bn1[0][0
# __________________________________________________________________________________________________
# flatten_2 (Flatten)             (None, 94)           0           item_embedding[0][0]             
# __________________________________________________________________________________________________
# multiply_1 (Multiply)           (None, 94)           0           leaky_re_lu_1[0][0]              
#                                                                  flatten_2[0][0]                  
# __________________________________________________________________________________________________
# prediction (Dense)              (None, 1)            95          multiply_1[0][0]                 
# ==================================================================================================
# Total params: 2,171,401
# Trainable params: 2,171,213
# Non-trainable params: 188
# __________________________________________________________________________________________________
# None
# 
# Performing k-fold 1
# Init: Recall = 0.0281, Jaccard score = 0.0215
…
