…
0, test_dataset=1, topk=3, verbose=1) 
# The best NeuMF model will be saved to Pretrain/_NeuMF_94_[512,96]_1566389915.h5
--weights_path: Pretrain/_NeuMF_94_[512,96]_1566389915.h5
# Load data done [1.7 s]. #user=20000, #item=2000, #train=143502, #test=eval_recall
# __________________________________________________________________________________________________
# Layer (type)                    Output Shape         Param #     Connected to                     
# ==================================================================================================
# user_feature_input (InputLayer) (None, 1000)         0                                            
# __________________________________________________________________________________________________
# user_input (InputLayer)         (None, 1)            0                                            
# __________________________________________________________________________________________________
# feature_dense_layer (Dense)     (None, 768)          768768      user_feature_input[0][0]         
# __________________________________________________________________________________________________
# item_input (InputLayer)         (None, 1)            0                                            
# __________________________________________________________________________________________________
# mlp_embedding_user (Embedding)  (None, 1, 256)       5120000     user_input[0][0]                 
# __________________________________________________________________________________________________
# feature_dense_layer_bn (BatchNo (None, 768)          3072        feature_dense_layer[0][0]        
# __________________________________________________________________________________________________
# flatten_3 (Flatten)             (None, 256)          0           mlp_embedding_user[0][0]         
# __________________________________________________________________________________________________
# leaky_re_lu_1 (LeakyReLU)       (None, 768)          0           feature_dense_layer_bn[0][0]     
# __________________________________________________________________________________________________
# mlp_embedding_item (Embedding)  (None, 1, 256)       512000      item_input[0][0]                 
# __________________________________________________________________________________________________
# concatenate_1 (Concatenate)     (None, 1024)         0           flatten_3[0][0]                  
#                                                                  leaky_re_lu_1[0][0]              
# __________________________________________________________________________________________________
# flatten_4 (Flatten)             (None, 256)          0           mlp_embedding_item[0][0]         
# __________________________________________________________________________________________________
# concatenate_2 (Concatenate)     (None, 1280)         0           concatenate_1[0][0]              
#                                                                  flatten_4[0][0]                  
# __________________________________________________________________________________________________
# mf_embedding_user (Embedding)   (None, 1, 94)        1880000     user_input[0][0]                 
# __________________________________________________________________________________________________
# mf_embedding_item (Embedding)   (None, 1, 94)        188000      item_input[0][0]                 
# __________________________________________________________________________________________________
# layer1 (Dense)                  (None, 96)           122976      concatenate_2[0][0]              
# __________________________________________________________________________________________________
# flatten_1 (Flatten)             (None, 94)           0           mf_embedding_user[0][0]          
# __________________________________________________________________________________________________
# flatten_2 (Flatten)             (None, 94)           0           mf_embedding_item[0][0]          
# __________________________________________________________________________________________________
# mlp_layer_bn1 (BatchNormalizati (None, 96)           384         layer1[0][0]                     
# __________________________________________________________________________________________________
# multiply_1 (Multiply)           (None, 94)           0           flatten_1[0][0]                  
#                                                                  flatten_2[0][0]                  
# __________________________________________________________________________________________________
# leaky_re_lu_2 (LeakyReLU)       (None, 96)           0           mlp_layer_bn1[0][0]              
# __________________________________________________________________________________________________
# concatenate_3 (Concatenate)     (None, 190)          0           multiply_1[0][0]                 
#                                                                  leaky_re_lu_2[0][0]              
# __________________________________________________________________________________________________
# prediction (Dense)              (None, 1)            191         concatenate_3[0][0]              
# ==================================================================================================
# Total params: 8,595,391
# Trainable params: 8,593,663
# Non-trainable params: 1,728
# __________________________________________________________________________________________________
# None
# Load pretrained GMF (Pretrain/_GMF_94_[64,32,16,8]_1566231092.h5) and MLP (Pretrain/_MLP_8_[512,96]_1566389718.h5) models done. 
…
