…
 test_dataset=0, topk=3, verbose=1) 
# The best NeuMF model will be saved to Pretrain/_MLP_8_[512,350,96]_1569754420.h5
--weights_path: Pretrain/_MLP_8_[512,350,96]_1569754420.h5
# Load data done [1.7 s]. #user=18000, #item=2000, #train=161301, #test=eval_recall
# __________________________________________________________________________________________________
# Layer (type)                    Output Shape         Param #     Connected to                     
# ==================================================================================================
# user_input (InputLayer)         (None, 1)            0                                            
# __________________________________________________________________________________________________
# user_embedding (Embedding)      (None, 1, 256)       4608000     user_input[0][0]                 
# __________________________________________________________________________________________________
# item_input (InputLayer)         (None, 1)            0                                            
# __________________________________________________________________________________________________
# flatten_7 (Flatten)             (None, 256)          0           user_embedding[0][0]             
# __________________________________________________________________________________________________
# item_embedding (Embedding)      (None, 1, 256)       512000      item_input[0][0]                 
# __________________________________________________________________________________________________
# dropout_12 (Dropout)            (None, 256)          0           flatten_7[0][0]                  
# __________________________________________________________________________________________________
# user_feature_input (InputLayer) (None, 1000)         0                                            
# __________________________________________________________________________________________________
# flatten_8 (Flatten)             (None, 256)          0           item_embedding[0][0]             
# __________________________________________________________________________________________________
# concatenate_7 (Concatenate)     (None, 1256)         0           dropout_12[0][0]                 
#                                                                  user_feature_input[0][0]         
# __________________________________________________________________________________________________
# dropout_13 (Dropout)            (None, 256)          0           flatten_8[0][0]                  
# __________________________________________________________________________________________________
# concatenate_8 (Concatenate)     (None, 1512)         0           concatenate_7[0][0]              
#                                                                  dropout_13[0][0]                 
# __________________________________________________________________________________________________
# layer1 (Dense)                  (None, 350)          529550      concatenate_8[0][0]              
# __________________________________________________________________________________________________
# dropout_14 (Dropout)            (None, 350)          0           layer1[0][0]                     
# __________________________________________________________________________________________________
# layer2 (Dense)                  (None, 96)           33696       dropout_14[0][0]                 
# __________________________________________________________________________________________________
# dropout_15 (Dropout)            (None, 96)           0           layer2[0][0]                     
# __________________________________________________________________________________________________
# prediction (Dense)              (None, 1)            97          dropout_15[0][0]                 
# ==================================================================================================
# Total params: 5,683,343
# Trainable params: 5,683,343
# Non-trainable params: 0
# __________________________________________________________________________________________________
# None
# 
# Performing k-fold 1
# Init: Recall = 0.0265, Jaccard score = 0.0159
…
