…
eg_mf=0, test_dataset=0, topk=3, verbose=1) 
# The best NeuMF model will be saved to Pretrain/_MLP_8_[512,96]_1569734900.h5
--weights_path: Pretrain/_MLP_8_[512,96]_1569734900.h5
# Load data done [1.7 s]. #user=18000, #item=2000, #train=161301, #test=eval_recall
# __________________________________________________________________________________________________
# Layer (type)                    Output Shape         Param #     Connected to                     
# ==================================================================================================
# user_input (InputLayer)         (None, 1)            0                                            
# __________________________________________________________________________________________________
# user_embedding (Embedding)      (None, 1, 256)       4608000     user_input[0][0]                 
# __________________________________________________________________________________________________
# item_input (InputLayer)         (None, 1)            0                                            
# __________________________________________________________________________________________________
# flatten_5 (Flatten)             (None, 256)          0           user_embedding[0][0]             
# __________________________________________________________________________________________________
# item_embedding (Embedding)      (None, 1, 256)       512000      item_input[0][0]                 
# __________________________________________________________________________________________________
# dropout_9 (Dropout)             (None, 256)          0           flatten_5[0][0]                  
# __________________________________________________________________________________________________
# user_feature_input (InputLayer) (None, 1000)         0                                            
# __________________________________________________________________________________________________
# flatten_6 (Flatten)             (None, 256)          0           item_embedding[0][0]             
# __________________________________________________________________________________________________
# concatenate_5 (Concatenate)     (None, 1256)         0           dropout_9[0][0]                  
#                                                                  user_feature_input[0][0]         
# __________________________________________________________________________________________________
# dropout_10 (Dropout)            (None, 256)          0           flatten_6[0][0]                  
# __________________________________________________________________________________________________
# concatenate_6 (Concatenate)     (None, 1512)         0           concatenate_5[0][0]              
#                                                                  dropout_10[0][0]                 
# __________________________________________________________________________________________________
# layer1 (Dense)                  (None, 96)           145248      concatenate_6[0][0]              
# __________________________________________________________________________________________________
# dropout_11 (Dropout)            (None, 96)           0           layer1[0][0]                     
# __________________________________________________________________________________________________
# prediction (Dense)              (None, 1)            97          dropout_11[0][0]                 
# ==================================================================================================
# Total params: 5,265,345
# Trainable params: 5,265,345
# Non-trainable params: 0
# __________________________________________________________________________________________________
# None
# 
# Performing k-fold 1
# Init: Recall = 0.0316, Jaccard score = 0.0190
…
