…
--weights_path: Pretrain/_NeuMF_94_[512,750,350,96]_1569358855.h5
# Load data done [2.1 s]. #user=20000, #item=2000, #train=161729, #test=eval_recall
# Load pretrained GMF (Pretrain/_GMF_94_[64,32,16,8]_1569335043.h5) and MLP (Pretrain/_MLP_8_[512,750,350,96]_1569313396.h5) models done. 
# __________________________________________________________________________________________________
# Layer (type)                    Output Shape         Param #     Connected to                     
# ==================================================================================================
# user_input (InputLayer)         (None, 1)            0                                            
# __________________________________________________________________________________________________
# item_input (InputLayer)         (None, 1)            0                                            
# __________________________________________________________________________________________________
# mlp_embedding_user (Embedding)  (None, 1, 256)       5120000     user_input[0][0]                 
# __________________________________________________________________________________________________
# flatten_3 (Flatten)             (None, 256)          0           mlp_embedding_user[0][0]         
# __________________________________________________________________________________________________
# user_feature_input (InputLayer) (None, 1000)         0                                            
# __________________________________________________________________________________________________
# mlp_embedding_item (Embedding)  (None, 1, 256)       512000      item_input[0][0]                 
# __________________________________________________________________________________________________
# mf_embedding_user (Embedding)   (None, 1, 94)        1880000     user_input[0][0]                 
# __________________________________________________________________________________________________
# mf_embedding_item (Embedding)   (None, 1, 94)        188000      item_input[0][0]                 
# __________________________________________________________________________________________________
# concatenate_1 (Concatenate)     (None, 1256)         0           flatten_3[0][0]                  
#                                                                  user_feature_input[0][0]         
# __________________________________________________________________________________________________
# flatten_4 (Flatten)             (None, 256)          0           mlp_embedding_item[0][0]         
# __________________________________________________________________________________________________
# flatten_1 (Flatten)             (None, 94)           0           mf_embedding_user[0][0]          
# __________________________________________________________________________________________________
# flatten_2 (Flatten)             (None, 94)           0           mf_embedding_item[0][0]          
# __________________________________________________________________________________________________
# concatenate_2 (Concatenate)     (None, 1512)         0           concatenate_1[0][0]              
#                                                                  flatten_4[0][0]                  
# __________________________________________________________________________________________________
# mf_bn_user (BatchNormalization) (None, 94)           376         flatten_1[0][0]                  
# __________________________________________________________________________________________________
# mf_bn_item (BatchNormalization) (None, 94)           376         flatten_2[0][0]                  
# __________________________________________________________________________________________________
# layer1 (Dense)                  (None, 750)          1134750     concatenate_2[0][0]              
# __________________________________________________________________________________________________
# dropout_1 (Dropout)             (None, 94)           0           mf_bn_user[0][0]                 
# __________________________________________________________________________________________________
# dropout_2 (Dropout)             (None, 94)           0           mf_bn_item[0][0]                 
# __________________________________________________________________________________________________
# layer2 (Dense)                  (None, 350)          262850      layer1[0][0]                     
# __________________________________________________________________________________________________
# multiply_1 (Multiply)           (None, 94)           0           dropout_1[0][0]                  
#                                                                  dropout_2[0][0]                  
# __________________________________________________________________________________________________
# layer3 (Dense)                  (None, 96)           33696       layer2[0][0]                     
# __________________________________________________________________________________________________
# concatenate_3 (Concatenate)     (None, 190)          0           multiply_1[0][0]                 
#                                                                  layer3[0][0]                     
# __________________________________________________________________________________________________
# prediction (Dense)              (None, 1)            191         concatenate_3[0][0]              
# ==================================================================================================
# Total params: 9,132,239
# Trainable params: 9,131,863
# Non-trainable params: 376
# __________________________________________________________________________________________________
# None
# 
# Performing k-fold 1
# Init: Recall = 0.3675, Jaccard score = 0.1260
…
