…
st_dataset=1, topk=10, verbose=1) 
# The best NeuMF model will be saved to Pretrain/_GMF_94_[64,32,16,8]_1569904737.h5
--weights_path: Pretrain/_GMF_94_[64,32,16,8]_1569904737.h5
# Load data done [1.6 s]. #user=20000, #item=2000, #train=147903, #test=eval_recall
# __________________________________________________________________________________________________
# Layer (type)                    Output Shape         Param #     Connected to                     
# ==================================================================================================
# user_input (InputLayer)         (None, 1)            0                                            
# __________________________________________________________________________________________________
# item_input (InputLayer)         (None, 1)            0                                            
# __________________________________________________________________________________________________
# user_embedding (Embedding)      (None, 1, 94)        1880000     user_input[0][0]                 
# __________________________________________________________________________________________________
# item_embedding (Embedding)      (None, 1, 94)        188000      item_input[0][0]                 
# __________________________________________________________________________________________________
# flatten_15 (Flatten)            (None, 94)           0           user_embedding[0][0]             
# __________________________________________________________________________________________________
# flatten_16 (Flatten)            (None, 94)           0           item_embedding[0][0]             
# __________________________________________________________________________________________________
# batch_normalization_5 (BatchNor (None, 94)           376         flatten_15[0][0]                 
# __________________________________________________________________________________________________
# batch_normalization_6 (BatchNor (None, 94)           376         flatten_16[0][0]                 
# __________________________________________________________________________________________________
# dropout_22 (Dropout)            (None, 94)           0           batch_normalization_5[0][0]      
# __________________________________________________________________________________________________
# dropout_23 (Dropout)            (None, 94)           0           batch_normalization_6[0][0]      
# __________________________________________________________________________________________________
# multiply_4 (Multiply)           (None, 94)           0           dropout_22[0][0]                 
#                                                                  dropout_23[0][0]                 
# __________________________________________________________________________________________________
# prediction (Dense)              (None, 1)            95          multiply_4[0][0]                 
# ==================================================================================================
# Total params: 2,068,847
# Trainable params: 2,068,471
# Non-trainable params: 376
# __________________________________________________________________________________________________
# None
# 
# Performing k-fold 1
# Init: Recall = 0.0055, Jaccard score = 0.0024
…
