…
, topk=10, verbose=1) 
# The best NeuMF model will be saved to Pretrain/_NeuMF_94_[512,750,350,96]_1569916903.h5
--weights_path: Pretrain/_NeuMF_94_[512,750,350,96]_1569916903.h5
# Load data done [2.0 s]. #user=20000, #item=2000, #train=161729, #test=eval_recall
# __________________________________________________________________________________________________
# Layer (type)                    Output Shape         Param #     Connected to                     
# ==================================================================================================
# user_input (InputLayer)         (None, 1)            0                                            
# __________________________________________________________________________________________________
# item_input (InputLayer)         (None, 1)            0                                            
# __________________________________________________________________________________________________
# mlp_embedding_user (Embedding)  (None, 1, 256)       5120000     user_input[0][0]                 
# __________________________________________________________________________________________________
# flatten_19 (Flatten)            (None, 256)          0           mlp_embedding_user[0][0]         
# __________________________________________________________________________________________________
# mlp_embedding_item (Embedding)  (None, 1, 256)       512000      item_input[0][0]                 
# __________________________________________________________________________________________________
# dropout_26 (Dropout)            (None, 256)          0           flatten_19[0][0]                 
# __________________________________________________________________________________________________
# user_feature_input (InputLayer) (None, 1000)         0                                            
# __________________________________________________________________________________________________
# flatten_20 (Flatten)            (None, 256)          0           mlp_embedding_item[0][0]         
# __________________________________________________________________________________________________
# concatenate_10 (Concatenate)    (None, 1256)         0           dropout_26[0][0]                 
#                                                                  user_feature_input[0][0]         
# __________________________________________________________________________________________________
# dropout_27 (Dropout)            (None, 256)          0           flatten_20[0][0]                 
# __________________________________________________________________________________________________
# concatenate_11 (Concatenate)    (None, 1512)         0           concatenate_10[0][0]             
#                                                                  dropout_27[0][0]                 
# __________________________________________________________________________________________________
# layer1 (Dense)                  (None, 750)          1134750     concatenate_11[0][0]             
# __________________________________________________________________________________________________
# mf_embedding_user (Embedding)   (None, 1, 94)        1880000     user_input[0][0]                 
# __________________________________________________________________________________________________
# mf_embedding_item (Embedding)   (None, 1, 94)        188000      item_input[0][0]                 
# __________________________________________________________________________________________________
# dropout_28 (Dropout)            (None, 750)          0           layer1[0][0]                     
# __________________________________________________________________________________________________
# flatten_17 (Flatten)            (None, 94)           0           mf_embedding_user[0][0]          
# __________________________________________________________________________________________________
# flatten_18 (Flatten)            (None, 94)           0           mf_embedding_item[0][0]          
# __________________________________________________________________________________________________
# layer2 (Dense)                  (None, 350)          262850      dropout_28[0][0]                 
# __________________________________________________________________________________________________
# mf_bn_user (BatchNormalization) (None, 94)           376         flatten_17[0][0]                 
# __________________________________________________________________________________________________
# mf_bn_item (BatchNormalization) (None, 94)           376         flatten_18[0][0]                 
# __________________________________________________________________________________________________
# dropout_29 (Dropout)            (None, 350)          0           layer2[0][0]                     
# __________________________________________________________________________________________________
# dropout_24 (Dropout)            (None, 94)           0           mf_bn_user[0][0]                 
# __________________________________________________________________________________________________
# dropout_25 (Dropout)            (None, 94)           0           mf_bn_item[0][0]                 
# __________________________________________________________________________________________________
# layer3 (Dense)                  (None, 96)           33696       dropout_29[0][0]                 
# __________________________________________________________________________________________________
# multiply_5 (Multiply)           (None, 94)           0           dropout_24[0][0]                 
#                                                                  dropout_25[0][0]                 
# __________________________________________________________________________________________________
# dropout_30 (Dropout)            (None, 96)           0           layer3[0][0]                     
# __________________________________________________________________________________________________
# concatenate_12 (Concatenate)    (None, 190)          0           multiply_5[0][0]                 
#                                                                  dropout_30[0][0]                 
# __________________________________________________________________________________________________
# prediction (Dense)              (None, 1)            191         concatenate_12[0][0]             
# ==================================================================================================
# Total params: 9,132,239
# Trainable params: 9,131,863
# Non-trainable params: 376
# __________________________________________________________________________________________________
# None
# 
# Performing k-fold 1
# Init: Recall = 0.0048, Jaccard score = 0.0015
…
