…
est_dataset=1, topk=3, verbose=1) 
# The best NeuMF model will be saved to Pretrain/_GMF_94_[64,32,16,8]_1566465223.h5
--weights_path: Pretrain/_GMF_94_[64,32,16,8]_1566465223.h5
# Load data done [2.0 s]. #user=20000, #item=2000, #train=161729, #test=eval_recall
# __________________________________________________________________________________________________
# Layer (type)                    Output Shape         Param #     Connected to                     
# ==================================================================================================
# item_input (InputLayer)         (None, 1)            0                                            
# __________________________________________________________________________________________________
# item_embedding (Embedding)      (None, 1, 94)        188000      item_input[0][0]                 
# __________________________________________________________________________________________________
# flatten_2 (Flatten)             (None, 94)           0           item_embedding[0][0]             
# __________________________________________________________________________________________________
# user_feature_input (InputLayer) (None, 1000)         0                                            
# __________________________________________________________________________________________________
# user_input (InputLayer)         (None, 1)            0                                            
# __________________________________________________________________________________________________
# concatenate_1 (Concatenate)     (None, 1094)         0           flatten_2[0][0]                  
#                                                                  user_feature_input[0][0]         
# __________________________________________________________________________________________________
# user_embedding (Embedding)      (None, 1, 94)        1880000     user_input[0][0]                 
# __________________________________________________________________________________________________
# user_feature_item_latent (Dense (None, 512)          560640      concatenate_1[0][0]              
# __________________________________________________________________________________________________
# flatten_1 (Flatten)             (None, 94)           0           user_embedding[0][0]             
# __________________________________________________________________________________________________
# user_feature_item_latent_bn (Ba (None, 512)          2048        user_feature_item_latent[0][0]   
# __________________________________________________________________________________________________
# multiply_1 (Multiply)           (None, 94)           0           flatten_1[0][0]                  
#                                                                  flatten_2[0][0]                  
# __________________________________________________________________________________________________
# leaky_re_lu_1 (LeakyReLU)       (None, 512)          0           user_feature_item_latent_bn[0][0]
# __________________________________________________________________________________________________
# concatenate_2 (Concatenate)     (None, 606)          0           multiply_1[0][0]                 
#                                                                  leaky_re_lu_1[0][0]              
# __________________________________________________________________________________________________
# final_dense_layer (Dense)       (None, 96)           58272       concatenate_2[0][0]              
# __________________________________________________________________________________________________
# final_dense_layer_bn (BatchNorm (None, 96)           384         final_dense_layer[0][0]          
# __________________________________________________________________________________________________
# leaky_re_lu_2 (LeakyReLU)       (None, 96)           0           final_dense_layer_bn[0][0]       
# __________________________________________________________________________________________________
# prediction (Dense)              (None, 1)            97          leaky_re_lu_2[0][0]              
# ==================================================================================================
# Total params: 2,689,441
# Trainable params: 2,688,225
# Non-trainable params: 1,216
# __________________________________________________________________________________________________
# None
# 
# Performing k-fold 1
# Init: Recall = 0.0291, Jaccard score = 0.0176
…
est_dataset=1, topk=3, verbose=1) 
# The best NeuMF model will be saved to Pretrain/_GMF_94_[64,32,16,8]_1566466253.h5
--weights_path: Pretrain/_GMF_94_[64,32,16,8]_1566466253.h5
# Load data done [2.1 s]. #user=20000, #item=2000, #train=161729, #test=eval_recall
# __________________________________________________________________________________________________
# Layer (type)                    Output Shape         Param #     Connected to                     
# ==================================================================================================
# user_input (InputLayer)         (None, 1)            0                                            
# __________________________________________________________________________________________________
# user_embedding (Embedding)      (None, 1, 94)        1880000     user_input[0][0]                 
# __________________________________________________________________________________________________
# flatten_1 (Flatten)             (None, 94)           0           user_embedding[0][0]             
# __________________________________________________________________________________________________
# user_feature_input (InputLayer) (None, 1000)         0                                            
# __________________________________________________________________________________________________
# item_input (InputLayer)         (None, 1)            0                                            
# __________________________________________________________________________________________________
# concatenate_1 (Concatenate)     (None, 1094)         0           flatten_1[0][0]                  
#                                                                  user_feature_input[0][0]         
# __________________________________________________________________________________________________
# item_embedding (Embedding)      (None, 1, 94)        188000      item_input[0][0]                 
# __________________________________________________________________________________________________
# user_feature_item_latent (Dense (None, 512)          560640      concatenate_1[0][0]              
# __________________________________________________________________________________________________
# flatten_2 (Flatten)             (None, 94)           0           item_embedding[0][0]             
# __________________________________________________________________________________________________
# user_feature_item_latent_bn (Ba (None, 512)          2048        user_feature_item_latent[0][0]   
# __________________________________________________________________________________________________
# multiply_1 (Multiply)           (None, 94)           0           flatten_1[0][0]                  
#                                                                  flatten_2[0][0]                  
# __________________________________________________________________________________________________
# leaky_re_lu_1 (LeakyReLU)       (None, 512)          0           user_feature_item_latent_bn[0][0]
# __________________________________________________________________________________________________
# concatenate_2 (Concatenate)     (None, 606)          0           multiply_1[0][0]                 
#                                                                  leaky_re_lu_1[0][0]              
# __________________________________________________________________________________________________
# final_dense_layer (Dense)       (None, 96)           58272       concatenate_2[0][0]              
# __________________________________________________________________________________________________
# final_dense_layer_bn (BatchNorm (None, 96)           384         final_dense_layer[0][0]          
# __________________________________________________________________________________________________
# leaky_re_lu_2 (LeakyReLU)       (None, 96)           0           final_dense_layer_bn[0][0]       
# __________________________________________________________________________________________________
# prediction (Dense)              (None, 1)            97          leaky_re_lu_2[0][0]              
# ==================================================================================================
# Total params: 2,689,441
# Trainable params: 2,688,225
# Non-trainable params: 1,216
# __________________________________________________________________________________________________
# None
# 
# Performing k-fold 1
# Init: Recall = 0.0280, Jaccard score = 0.0169
…
est_dataset=1, topk=3, verbose=1) 
# The best NeuMF model will be saved to Pretrain/_GMF_94_[64,32,16,8]_1566466645.h5
--weights_path: Pretrain/_GMF_94_[64,32,16,8]_1566466645.h5
# Load data done [1.9 s]. #user=20000, #item=2000, #train=161729, #test=eval_recall
# __________________________________________________________________________________________________
# Layer (type)                    Output Shape         Param #     Connected to                     
# ==================================================================================================
# item_input (InputLayer)         (None, 1)            0                                            
# __________________________________________________________________________________________________
# item_embedding (Embedding)      (None, 1, 94)        188000      item_input[0][0]                 
# __________________________________________________________________________________________________
# flatten_2 (Flatten)             (None, 94)           0           item_embedding[0][0]             
# __________________________________________________________________________________________________
# user_feature_input (InputLayer) (None, 1000)         0                                            
# __________________________________________________________________________________________________
# user_input (InputLayer)         (None, 1)            0                                            
# __________________________________________________________________________________________________
# concatenate_1 (Concatenate)     (None, 1094)         0           flatten_2[0][0]                  
#                                                                  user_feature_input[0][0]         
# __________________________________________________________________________________________________
# user_embedding (Embedding)      (None, 1, 94)        1880000     user_input[0][0]                 
# __________________________________________________________________________________________________
# user_feature_item_latent (Dense (None, 512)          560640      concatenate_1[0][0]              
# __________________________________________________________________________________________________
# flatten_1 (Flatten)             (None, 94)           0           user_embedding[0][0]             
# __________________________________________________________________________________________________
# user_feature_item_latent_bn (Ba (None, 512)          2048        user_feature_item_latent[0][0]   
# __________________________________________________________________________________________________
# multiply_1 (Multiply)           (None, 94)           0           flatten_1[0][0]                  
#                                                                  flatten_2[0][0]                  
# __________________________________________________________________________________________________
# leaky_re_lu_1 (LeakyReLU)       (None, 512)          0           user_feature_item_latent_bn[0][0]
# __________________________________________________________________________________________________
# concatenate_2 (Concatenate)     (None, 606)          0           multiply_1[0][0]                 
#                                                                  leaky_re_lu_1[0][0]              
# __________________________________________________________________________________________________
# prediction (Dense)              (None, 1)            607         concatenate_2[0][0]              
# ==================================================================================================
# Total params: 2,631,295
# Trainable params: 2,630,271
# Non-trainable params: 1,024
# __________________________________________________________________________________________________
# None
# 
# Performing k-fold 1
# Init: Recall = 0.0275, Jaccard score = 0.0166
…
est_dataset=1, topk=3, verbose=1) 
# The best NeuMF model will be saved to Pretrain/_GMF_94_[64,32,16,8]_1566467763.h5
--weights_path: Pretrain/_GMF_94_[64,32,16,8]_1566467763.h5
# Load data done [1.9 s]. #user=20000, #item=2000, #train=161729, #test=eval_recall
# __________________________________________________________________________________________________
# Layer (type)                    Output Shape         Param #     Connected to                     
# ==================================================================================================
# item_input (InputLayer)         (None, 1)            0                                            
# __________________________________________________________________________________________________
# item_embedding (Embedding)      (None, 1, 94)        188000      item_input[0][0]                 
# __________________________________________________________________________________________________
# flatten_2 (Flatten)             (None, 94)           0           item_embedding[0][0]             
# __________________________________________________________________________________________________
# user_feature_input (InputLayer) (None, 1000)         0                                            
# __________________________________________________________________________________________________
# user_input (InputLayer)         (None, 1)            0                                            
# __________________________________________________________________________________________________
# concatenate_1 (Concatenate)     (None, 1094)         0           flatten_2[0][0]                  
#                                                                  user_feature_input[0][0]         
# __________________________________________________________________________________________________
# user_embedding (Embedding)      (None, 1, 94)        1880000     user_input[0][0]                 
# __________________________________________________________________________________________________
# user_feature_item_latent (Dense (None, 128)          140160      concatenate_1[0][0]              
# __________________________________________________________________________________________________
# flatten_1 (Flatten)             (None, 94)           0           user_embedding[0][0]             
# __________________________________________________________________________________________________
# user_feature_item_latent_bn (Ba (None, 128)          512         user_feature_item_latent[0][0]   
# __________________________________________________________________________________________________
# multiply_1 (Multiply)           (None, 94)           0           flatten_1[0][0]                  
#                                                                  flatten_2[0][0]                  
# __________________________________________________________________________________________________
# leaky_re_lu_1 (LeakyReLU)       (None, 128)          0           user_feature_item_latent_bn[0][0]
# __________________________________________________________________________________________________
# concatenate_2 (Concatenate)     (None, 222)          0           multiply_1[0][0]                 
#                                                                  leaky_re_lu_1[0][0]              
# __________________________________________________________________________________________________
# prediction (Dense)              (None, 1)            223         concatenate_2[0][0]              
# ==================================================================================================
# Total params: 2,208,895
# Trainable params: 2,208,639
# Non-trainable params: 256
# __________________________________________________________________________________________________
# None
# 
# Performing k-fold 1
# Init: Recall = 0.0274, Jaccard score = 0.0165
…
est_dataset=1, topk=3, verbose=1) 
# The best NeuMF model will be saved to Pretrain/_GMF_94_[64,32,16,8]_1566468137.h5
--weights_path: Pretrain/_GMF_94_[64,32,16,8]_1566468137.h5
# Load data done [1.9 s]. #user=20000, #item=2000, #train=161729, #test=eval_recall
# __________________________________________________________________________________________________
# Layer (type)                    Output Shape         Param #     Connected to                     
# ==================================================================================================
# item_input (InputLayer)         (None, 1)            0                                            
# __________________________________________________________________________________________________
# item_embedding (Embedding)      (None, 1, 94)        188000      item_input[0][0]                 
# __________________________________________________________________________________________________
# flatten_2 (Flatten)             (None, 94)           0           item_embedding[0][0]             
# __________________________________________________________________________________________________
# user_feature_input (InputLayer) (None, 1000)         0                                            
# __________________________________________________________________________________________________
# user_input (InputLayer)         (None, 1)            0                                            
# __________________________________________________________________________________________________
# concatenate_1 (Concatenate)     (None, 1094)         0           flatten_2[0][0]                  
#                                                                  user_feature_input[0][0]         
# __________________________________________________________________________________________________
# user_embedding (Embedding)      (None, 1, 94)        1880000     user_input[0][0]                 
# __________________________________________________________________________________________________
# user_feature_item_latent (Dense (None, 2)            2190        concatenate_1[0][0]              
# __________________________________________________________________________________________________
# flatten_1 (Flatten)             (None, 94)           0           user_embedding[0][0]             
# __________________________________________________________________________________________________
# user_feature_item_latent_bn (Ba (None, 2)            8           user_feature_item_latent[0][0]   
# __________________________________________________________________________________________________
# multiply_1 (Multiply)           (None, 94)           0           flatten_1[0][0]                  
#                                                                  flatten_2[0][0]                  
# __________________________________________________________________________________________________
# leaky_re_lu_1 (LeakyReLU)       (None, 2)            0           user_feature_item_latent_bn[0][0]
# __________________________________________________________________________________________________
# concatenate_2 (Concatenate)     (None, 96)           0           multiply_1[0][0]                 
#                                                                  leaky_re_lu_1[0][0]              
# __________________________________________________________________________________________________
# prediction (Dense)              (None, 1)            97          concatenate_2[0][0]              
# ==================================================================================================
# Total params: 2,070,295
# Trainable params: 2,070,291
# Non-trainable params: 4
# __________________________________________________________________________________________________
# None
# 
# Performing k-fold 1
# Init: Recall = 0.0272, Jaccard score = 0.0164
…
est_dataset=1, topk=3, verbose=1) 
# The best NeuMF model will be saved to Pretrain/_GMF_94_[64,32,16,8]_1566468597.h5
--weights_path: Pretrain/_GMF_94_[64,32,16,8]_1566468597.h5
# Load data done [1.9 s]. #user=20000, #item=2000, #train=161729, #test=eval_recall
# __________________________________________________________________________________________________
# Layer (type)                    Output Shape         Param #     Connected to                     
# ==================================================================================================
# user_input (InputLayer)         (None, 1)            0                                            
# __________________________________________________________________________________________________
# item_input (InputLayer)         (None, 1)            0                                            
# __________________________________________________________________________________________________
# user_embedding (Embedding)      (None, 1, 94)        1880000     user_input[0][0]                 
# __________________________________________________________________________________________________
# item_embedding (Embedding)      (None, 1, 94)        188000      item_input[0][0]                 
# __________________________________________________________________________________________________
# flatten_1 (Flatten)             (None, 94)           0           user_embedding[0][0]             
# __________________________________________________________________________________________________
# flatten_2 (Flatten)             (None, 94)           0           item_embedding[0][0]             
# __________________________________________________________________________________________________
# multiply_1 (Multiply)           (None, 94)           0           flatten_1[0][0]                  
#                                                                  flatten_2[0][0]                  
# __________________________________________________________________________________________________
# prediction (Dense)              (None, 1)            95          multiply_1[0][0]                 
# ==================================================================================================
# Total params: 2,068,095
# Trainable params: 2,068,095
# Non-trainable params: 0
# __________________________________________________________________________________________________
# None
# 
# Performing k-fold 1
# Init: Recall = 0.0287, Jaccard score = 0.0173
…
est_dataset=1, topk=3, verbose=1) 
# The best NeuMF model will be saved to Pretrain/_GMF_94_[64,32,16,8]_1566469016.h5
--weights_path: Pretrain/_GMF_94_[64,32,16,8]_1566469016.h5
# Load data done [1.9 s]. #user=20000, #item=2000, #train=161729, #test=eval_recall
# __________________________________________________________________________________________________
# Layer (type)                    Output Shape         Param #     Connected to                     
# ==================================================================================================
# item_input (InputLayer)         (None, 1)            0                                            
# __________________________________________________________________________________________________
# item_embedding (Embedding)      (None, 1, 94)        188000      item_input[0][0]                 
# __________________________________________________________________________________________________
# flatten_2 (Flatten)             (None, 94)           0           item_embedding[0][0]             
# __________________________________________________________________________________________________
# user_feature_input (InputLayer) (None, 1000)         0                                            
# __________________________________________________________________________________________________
# concatenate_1 (Concatenate)     (None, 1094)         0           flatten_2[0][0]                  
#                                                                  user_feature_input[0][0]         
# __________________________________________________________________________________________________
# user_input (InputLayer)         (None, 1)            0                                            
# __________________________________________________________________________________________________
# user_feature_item_latent (Dense (None, 2)            2190        concatenate_1[0][0]              
# __________________________________________________________________________________________________
# user_embedding (Embedding)      (None, 1, 94)        1880000     user_input[0][0]                 
# __________________________________________________________________________________________________
# user_feature_item_latent_bn (Ba (None, 2)            8           user_feature_item_latent[0][0]   
# __________________________________________________________________________________________________
# flatten_1 (Flatten)             (None, 94)           0           user_embedding[0][0]             
# __________________________________________________________________________________________________
# user_feature_item_latent_dropou (None, 2)            0           user_feature_item_latent_bn[0][0]
# __________________________________________________________________________________________________
# multiply_1 (Multiply)           (None, 94)           0           flatten_1[0][0]                  
#                                                                  flatten_2[0][0]                  
# __________________________________________________________________________________________________
# leaky_re_lu_1 (LeakyReLU)       (None, 2)            0           user_feature_item_latent_dropout[
# __________________________________________________________________________________________________
# concatenate_2 (Concatenate)     (None, 96)           0           multiply_1[0][0]                 
#                                                                  leaky_re_lu_1[0][0]              
# __________________________________________________________________________________________________
# prediction (Dense)              (None, 1)            97          concatenate_2[0][0]              
# ==================================================================================================
# Total params: 2,070,295
# Trainable params: 2,070,291
# Non-trainable params: 4
# __________________________________________________________________________________________________
# None
# 
# Performing k-fold 1
# Init: Recall = 0.0273, Jaccard score = 0.0165
…
est_dataset=1, topk=3, verbose=1) 
# The best NeuMF model will be saved to Pretrain/_GMF_94_[64,32,16,8]_1566469320.h5
--weights_path: Pretrain/_GMF_94_[64,32,16,8]_1566469320.h5
# Load data done [1.9 s]. #user=20000, #item=2000, #train=161729, #test=eval_recall
# __________________________________________________________________________________________________
# Layer (type)                    Output Shape         Param #     Connected to                     
# ==================================================================================================
# item_input (InputLayer)         (None, 1)            0                                            
# __________________________________________________________________________________________________
# item_embedding (Embedding)      (None, 1, 94)        188000      item_input[0][0]                 
# __________________________________________________________________________________________________
# flatten_2 (Flatten)             (None, 94)           0           item_embedding[0][0]             
# __________________________________________________________________________________________________
# user_feature_input (InputLayer) (None, 1000)         0                                            
# __________________________________________________________________________________________________
# user_input (InputLayer)         (None, 1)            0                                            
# __________________________________________________________________________________________________
# concatenate_1 (Concatenate)     (None, 1094)         0           flatten_2[0][0]                  
#                                                                  user_feature_input[0][0]         
# __________________________________________________________________________________________________
# user_embedding (Embedding)      (None, 1, 94)        1880000     user_input[0][0]                 
# __________________________________________________________________________________________________
# user_feature_item_latent (Dense (None, 2)            2190        concatenate_1[0][0]              
# __________________________________________________________________________________________________
# flatten_1 (Flatten)             (None, 94)           0           user_embedding[0][0]             
# __________________________________________________________________________________________________
# user_feature_item_latent_dropou (None, 2)            0           user_feature_item_latent[0][0]   
# __________________________________________________________________________________________________
# multiply_1 (Multiply)           (None, 94)           0           flatten_1[0][0]                  
#                                                                  flatten_2[0][0]                  
# __________________________________________________________________________________________________
# leaky_re_lu_1 (LeakyReLU)       (None, 2)            0           user_feature_item_latent_dropout[
# __________________________________________________________________________________________________
# concatenate_2 (Concatenate)     (None, 96)           0           multiply_1[0][0]                 
#                                                                  leaky_re_lu_1[0][0]              
# __________________________________________________________________________________________________
# prediction (Dense)              (None, 1)            97          concatenate_2[0][0]              
# ==================================================================================================
# Total params: 2,070,287
# Trainable params: 2,070,287
# Non-trainable params: 0
# __________________________________________________________________________________________________
# None
# 
# Performing k-fold 1
# Init: Recall = 0.0311, Jaccard score = 0.0188
…
est_dataset=1, topk=3, verbose=1) 
# The best NeuMF model will be saved to Pretrain/_GMF_94_[64,32,16,8]_1566470011.h5
--weights_path: Pretrain/_GMF_94_[64,32,16,8]_1566470011.h5
# Load data done [1.9 s]. #user=20000, #item=2000, #train=161729, #test=eval_recall
# __________________________________________________________________________________________________
# Layer (type)                    Output Shape         Param #     Connected to                     
# ==================================================================================================
# item_input (InputLayer)         (None, 1)            0                                            
# __________________________________________________________________________________________________
# item_embedding (Embedding)      (None, 1, 94)        188000      item_input[0][0]                 
# __________________________________________________________________________________________________
# user_input (InputLayer)         (None, 1)            0                                            
# __________________________________________________________________________________________________
# flatten_2 (Flatten)             (None, 94)           0           item_embedding[0][0]             
# __________________________________________________________________________________________________
# user_feature_input (InputLayer) (None, 1000)         0                                            
# __________________________________________________________________________________________________
# user_embedding (Embedding)      (None, 1, 94)        1880000     user_input[0][0]                 
# __________________________________________________________________________________________________
# concatenate_1 (Concatenate)     (None, 1094)         0           flatten_2[0][0]                  
#                                                                  user_feature_input[0][0]         
# __________________________________________________________________________________________________
# flatten_1 (Flatten)             (None, 94)           0           user_embedding[0][0]             
# __________________________________________________________________________________________________
# user_feature_item_latent (Dense (None, 2)            2190        concatenate_1[0][0]              
# __________________________________________________________________________________________________
# multiply_1 (Multiply)           (None, 94)           0           flatten_1[0][0]                  
#                                                                  flatten_2[0][0]                  
# __________________________________________________________________________________________________
# leaky_re_lu_1 (LeakyReLU)       (None, 2)            0           user_feature_item_latent[0][0]   
# __________________________________________________________________________________________________
# concatenate_2 (Concatenate)     (None, 96)           0           multiply_1[0][0]                 
#                                                                  leaky_re_lu_1[0][0]              
# __________________________________________________________________________________________________
# prediction (Dense)              (None, 1)            97          concatenate_2[0][0]              
# ==================================================================================================
# Total params: 2,070,287
# Trainable params: 2,068,097
# Non-trainable params: 2,190
# __________________________________________________________________________________________________
# None
# 
# Performing k-fold 1
# Init: Recall = 0.0286, Jaccard score = 0.0172
…
est_dataset=1, topk=3, verbose=1) 
# The best NeuMF model will be saved to Pretrain/_GMF_94_[64,32,16,8]_1566474956.h5
--weights_path: Pretrain/_GMF_94_[64,32,16,8]_1566474956.h5
# Load data done [2.1 s]. #user=20000, #item=2000, #train=161729, #test=eval_recall
# __________________________________________________________________________________________________
# Layer (type)                    Output Shape         Param #     Connected to                     
# ==================================================================================================
# item_input (InputLayer)         (None, 1)            0                                            
# __________________________________________________________________________________________________
# item_embedding (Embedding)      (None, 1, 94)        188000      item_input[0][0]                 
# __________________________________________________________________________________________________
# flatten_2 (Flatten)             (None, 94)           0           item_embedding[0][0]             
# __________________________________________________________________________________________________
# user_feature_input (InputLayer) (None, 1000)         0                                            
# __________________________________________________________________________________________________
# concatenate_1 (Concatenate)     (None, 1094)         0           flatten_2[0][0]                  
#                                                                  user_feature_input[0][0]         
# __________________________________________________________________________________________________
# user_feature_item_latent (Dense (None, 96)           105120      concatenate_1[0][0]              
# __________________________________________________________________________________________________
# user_feature_item_latent_bn (Ba (None, 96)           384         user_feature_item_latent[0][0]   
# __________________________________________________________________________________________________
# leaky_re_lu_1 (LeakyReLU)       (None, 96)           0           user_feature_item_latent_bn[0][0]
# __________________________________________________________________________________________________
# prediction (Dense)              (None, 1)            97          leaky_re_lu_1[0][0]              
# ==================================================================================================
# Total params: 293,601
# Trainable params: 293,409
# Non-trainable params: 192
# __________________________________________________________________________________________________
# None
# 
# Performing k-fold 1
# Init: Recall = 0.0274, Jaccard score = 0.0165
…
est_dataset=1, topk=3, verbose=1) 
# The best NeuMF model will be saved to Pretrain/_GMF_94_[64,32,16,8]_1566475262.h5
--weights_path: Pretrain/_GMF_94_[64,32,16,8]_1566475262.h5
# Load data done [1.7 s]. #user=20000, #item=2000, #train=161729, #test=eval_recall
# __________________________________________________________________________________________________
# Layer (type)                    Output Shape         Param #     Connected to                     
# ==================================================================================================
# item_input (InputLayer)         (None, 1)            0                                            
# __________________________________________________________________________________________________
# item_embedding (Embedding)      (None, 1, 94)        188000      item_input[0][0]                 
# __________________________________________________________________________________________________
# flatten_2 (Flatten)             (None, 94)           0           item_embedding[0][0]             
# __________________________________________________________________________________________________
# user_feature_input (InputLayer) (None, 1000)         0                                            
# __________________________________________________________________________________________________
# user_input (InputLayer)         (None, 1)            0                                            
# __________________________________________________________________________________________________
# concatenate_1 (Concatenate)     (None, 1094)         0           flatten_2[0][0]                  
#                                                                  user_feature_input[0][0]         
# __________________________________________________________________________________________________
# user_embedding (Embedding)      (None, 1, 94)        1880000     user_input[0][0]                 
# __________________________________________________________________________________________________
# user_feature_item_latent (Dense (None, 96)           105120      concatenate_1[0][0]              
# __________________________________________________________________________________________________
# flatten_1 (Flatten)             (None, 94)           0           user_embedding[0][0]             
# __________________________________________________________________________________________________
# user_feature_item_latent_bn (Ba (None, 96)           384         user_feature_item_latent[0][0]   
# __________________________________________________________________________________________________
# multiply_1 (Multiply)           (None, 94)           0           flatten_1[0][0]                  
#                                                                  flatten_2[0][0]                  
# __________________________________________________________________________________________________
# leaky_re_lu_1 (LeakyReLU)       (None, 96)           0           user_feature_item_latent_bn[0][0]
# __________________________________________________________________________________________________
# concatenate_2 (Concatenate)     (None, 190)          0           multiply_1[0][0]                 
#                                                                  leaky_re_lu_1[0][0]              
# __________________________________________________________________________________________________
# prediction (Dense)              (None, 1)            191         concatenate_2[0][0]              
# ==================================================================================================
# Total params: 2,173,695
# Trainable params: 2,173,503
# Non-trainable params: 192
# __________________________________________________________________________________________________
# None
# 
# Performing k-fold 1
# Init: Recall = 0.0246, Jaccard score = 0.0148
…
est_dataset=1, topk=3, verbose=1) 
# The best NeuMF model will be saved to Pretrain/_GMF_94_[64,32,16,8]_1566481602.h5
--weights_path: Pretrain/_GMF_94_[64,32,16,8]_1566481602.h5
# Load data done [5.2 s]. #user=20000, #item=2000, #train=161729, #test=eval_recall
# __________________________________________________________________________________________________
# Layer (type)                    Output Shape         Param #     Connected to                     
# ==================================================================================================
# item_input (InputLayer)         (None, 1)            0                                            
# __________________________________________________________________________________________________
# item_embedding (Embedding)      (None, 1, 94)        188000      item_input[0][0]                 
# __________________________________________________________________________________________________
# flatten_2 (Flatten)             (None, 94)           0           item_embedding[0][0]             
# __________________________________________________________________________________________________
# user_feature_input (InputLayer) (None, 1000)         0                                            
# __________________________________________________________________________________________________
# concatenate_1 (Concatenate)     (None, 1094)         0           flatten_2[0][0]                  
#                                                                  user_feature_input[0][0]         
# __________________________________________________________________________________________________
# user_feature_item_latent1 (Dens (None, 512)          560640      concatenate_1[0][0]              
# __________________________________________________________________________________________________
# user_feature_item_latent_bn1 (B (None, 512)          2048        user_feature_item_latent1[0][0]  
# __________________________________________________________________________________________________
# user_input (InputLayer)         (None, 1)            0                                            
# __________________________________________________________________________________________________
# leaky_re_lu_1 (LeakyReLU)       (None, 512)          0           user_feature_item_latent_bn1[0][0
# __________________________________________________________________________________________________
# user_embedding (Embedding)      (None, 1, 94)        1880000     user_input[0][0]                 
# __________________________________________________________________________________________________
# user_feature_item_latent2 (Dens (None, 96)           49248       leaky_re_lu_1[0][0]              
# __________________________________________________________________________________________________
# flatten_1 (Flatten)             (None, 94)           0           user_embedding[0][0]             
# __________________________________________________________________________________________________
# user_feature_item_latent_bn2 (B (None, 96)           384         user_feature_item_latent2[0][0]  
# __________________________________________________________________________________________________
# multiply_1 (Multiply)           (None, 94)           0           flatten_1[0][0]                  
#                                                                  flatten_2[0][0]                  
# __________________________________________________________________________________________________
# leaky_re_lu_2 (LeakyReLU)       (None, 96)           0           user_feature_item_latent_bn2[0][0
# __________________________________________________________________________________________________
# concatenate_2 (Concatenate)     (None, 190)          0           multiply_1[0][0]                 
#                                                                  leaky_re_lu_2[0][0]              
# __________________________________________________________________________________________________
# prediction (Dense)              (None, 1)            191         concatenate_2[0][0]              
# ==================================================================================================
# Total params: 2,680,511
# Trainable params: 2,679,295
# Non-trainable params: 1,216
# __________________________________________________________________________________________________
# None
# 
# Performing k-fold 1
# Init: Recall = 0.0300, Jaccard score = 0.0181
…
t_dataset=1, topk=3, verbose=1) 
# The best NeuMF model will be saved to Pretrain/_GMF_256_[64,32,16,8]_1566484710.h5
--weights_path: Pretrain/_GMF_256_[64,32,16,8]_1566484710.h5
# Load data done [1.9 s]. #user=20000, #item=2000, #train=161729, #test=eval_recall
# __________________________________________________________________________________________________
# Layer (type)                    Output Shape         Param #     Connected to                     
# ==================================================================================================
# item_input (InputLayer)         (None, 1)            0                                            
# __________________________________________________________________________________________________
# item_embedding (Embedding)      (None, 1, 256)       512000      item_input[0][0]                 
# __________________________________________________________________________________________________
# flatten_2 (Flatten)             (None, 256)          0           item_embedding[0][0]             
# __________________________________________________________________________________________________
# user_feature_input (InputLayer) (None, 1000)         0                                            
# __________________________________________________________________________________________________
# user_input (InputLayer)         (None, 1)            0                                            
# __________________________________________________________________________________________________
# concatenate_1 (Concatenate)     (None, 1256)         0           flatten_2[0][0]                  
#                                                                  user_feature_input[0][0]         
# __________________________________________________________________________________________________
# user_embedding (Embedding)      (None, 1, 256)       5120000     user_input[0][0]                 
# __________________________________________________________________________________________________
# user_feature_item_latent1 (Dens (None, 512)          643584      concatenate_1[0][0]              
# __________________________________________________________________________________________________
# flatten_1 (Flatten)             (None, 256)          0           user_embedding[0][0]             
# __________________________________________________________________________________________________
# user_feature_item_latent_bn1 (B (None, 512)          2048        user_feature_item_latent1[0][0]  
# __________________________________________________________________________________________________
# multiply_1 (Multiply)           (None, 256)          0           flatten_1[0][0]                  
#                                                                  flatten_2[0][0]                  
# __________________________________________________________________________________________________
# leaky_re_lu_1 (LeakyReLU)       (None, 512)          0           user_feature_item_latent_bn1[0][0
# __________________________________________________________________________________________________
# concatenate_2 (Concatenate)     (None, 768)          0           multiply_1[0][0]                 
#                                                                  leaky_re_lu_1[0][0]              
# __________________________________________________________________________________________________
# prediction (Dense)              (None, 1)            769         concatenate_2[0][0]              
# ==================================================================================================
# Total params: 6,278,401
# Trainable params: 6,277,377
# Non-trainable params: 1,024
# __________________________________________________________________________________________________
# None
# 
# Performing k-fold 1
# Init: Recall = 0.0236, Jaccard score = 0.0142
…
est_dataset=1, topk=3, verbose=1) 
# The best NeuMF model will be saved to Pretrain/_GMF_94_[64,32,16,8]_1566509105.h5
--weights_path: Pretrain/_GMF_94_[64,32,16,8]_1566509105.h5
# Load data done [1.7 s]. #user=20000, #item=2000, #train=161729, #test=eval_recall
# __________________________________________________________________________________________________
# Layer (type)                    Output Shape         Param #     Connected to                     
# ==================================================================================================
# item_input (InputLayer)         (None, 1)            0                                            
# __________________________________________________________________________________________________
# item_embedding (Embedding)      (None, 1, 94)        188000      item_input[0][0]                 
# __________________________________________________________________________________________________
# flatten_2 (Flatten)             (None, 94)           0           item_embedding[0][0]             
# __________________________________________________________________________________________________
# user_feature_input (InputLayer) (None, 1000)         0                                            
# __________________________________________________________________________________________________
# concatenate_1 (Concatenate)     (None, 1094)         0           flatten_2[0][0]                  
#                                                                  user_feature_input[0][0]         
# __________________________________________________________________________________________________
# user_feature_item_latent1 (Dens (None, 1000)         1095000     concatenate_1[0][0]              
# __________________________________________________________________________________________________
# user_feature_item_latent_bn1 (B (None, 1000)         4000        user_feature_item_latent1[0][0]  
# __________________________________________________________________________________________________
# user_input (InputLayer)         (None, 1)            0                                            
# __________________________________________________________________________________________________
# leaky_re_lu_1 (LeakyReLU)       (None, 1000)         0           user_feature_item_latent_bn1[0][0
# __________________________________________________________________________________________________
# user_embedding (Embedding)      (None, 1, 94)        1880000     user_input[0][0]                 
# __________________________________________________________________________________________________
# user_feature_item_latent2 (Dens (None, 96)           96096       leaky_re_lu_1[0][0]              
# __________________________________________________________________________________________________
# flatten_1 (Flatten)             (None, 94)           0           user_embedding[0][0]             
# __________________________________________________________________________________________________
# user_feature_item_latent_bn2 (B (None, 96)           384         user_feature_item_latent2[0][0]  
# __________________________________________________________________________________________________
# multiply_1 (Multiply)           (None, 94)           0           flatten_1[0][0]                  
#                                                                  flatten_2[0][0]                  
# __________________________________________________________________________________________________
# leaky_re_lu_2 (LeakyReLU)       (None, 96)           0           user_feature_item_latent_bn2[0][0
# __________________________________________________________________________________________________
# concatenate_2 (Concatenate)     (None, 190)          0           multiply_1[0][0]                 
#                                                                  leaky_re_lu_2[0][0]              
# __________________________________________________________________________________________________
# prediction (Dense)              (None, 1)            191         concatenate_2[0][0]              
# ==================================================================================================
# Total params: 3,263,671
# Trainable params: 3,261,479
# Non-trainable params: 2,192
# __________________________________________________________________________________________________
# None
# 
# Performing k-fold 1
# Init: Recall = 0.0290, Jaccard score = 0.0175
…
est_dataset=1, topk=3, verbose=1) 
# The best NeuMF model will be saved to Pretrain/_GMF_94_[64,32,16,8]_1566543538.h5
--weights_path: Pretrain/_GMF_94_[64,32,16,8]_1566543538.h5
# Load data done [1.7 s]. #user=20000, #item=2000, #train=161729, #test=eval_recall
# __________________________________________________________________________________________________
# Layer (type)                    Output Shape         Param #     Connected to                     
# ==================================================================================================
# item_input (InputLayer)         (None, 1)            0                                            
# __________________________________________________________________________________________________
# item_embedding (Embedding)      (None, 1, 94)        188000      item_input[0][0]                 
# __________________________________________________________________________________________________
# flatten_2 (Flatten)             (None, 94)           0           item_embedding[0][0]             
# __________________________________________________________________________________________________
# user_feature_input (InputLayer) (None, 1000)         0                                            
# __________________________________________________________________________________________________
# user_input (InputLayer)         (None, 1)            0                                            
# __________________________________________________________________________________________________
# concatenate_1 (Concatenate)     (None, 1094)         0           flatten_2[0][0]                  
#                                                                  user_feature_input[0][0]         
# __________________________________________________________________________________________________
# user_embedding (Embedding)      (None, 1, 94)        1880000     user_input[0][0]                 
# __________________________________________________________________________________________________
# user_feature_item_latent1 (Dens (None, 1000)         1095000     concatenate_1[0][0]              
# __________________________________________________________________________________________________
# flatten_1 (Flatten)             (None, 94)           0           user_embedding[0][0]             
# __________________________________________________________________________________________________
# user_feature_item_latent_bn1 (B (None, 1000)         4000        user_feature_item_latent1[0][0]  
# __________________________________________________________________________________________________
# multiply_1 (Multiply)           (None, 94)           0           flatten_1[0][0]                  
#                                                                  flatten_2[0][0]                  
# __________________________________________________________________________________________________
# leaky_re_lu_1 (LeakyReLU)       (None, 1000)         0           user_feature_item_latent_bn1[0][0
# __________________________________________________________________________________________________
# concatenate_2 (Concatenate)     (None, 1094)         0           multiply_1[0][0]                 
#                                                                  leaky_re_lu_1[0][0]              
# __________________________________________________________________________________________________
# prediction (Dense)              (None, 1)            1095        concatenate_2[0][0]              
# ==================================================================================================
# Total params: 3,168,095
# Trainable params: 3,166,095
# Non-trainable params: 2,000
# __________________________________________________________________________________________________
# None
# 
# Performing k-fold 1
# Init: Recall = 0.0271, Jaccard score = 0.0163
…
est_dataset=1, topk=3, verbose=1) 
# The best NeuMF model will be saved to Pretrain/_GMF_94_[64,32,16,8]_1566551912.h5
--weights_path: Pretrain/_GMF_94_[64,32,16,8]_1566551912.h5
# Load data done [1.9 s]. #user=20000, #item=2000, #train=161729, #test=eval_recall
# __________________________________________________________________________________________________
# Layer (type)                    Output Shape         Param #     Connected to                     
# ==================================================================================================
# user_input (InputLayer)         (None, 1)            0                                            
# __________________________________________________________________________________________________
# user_embedding (Embedding)      (None, 1, 94)        1880000     user_input[0][0]                 
# __________________________________________________________________________________________________
# flatten_1 (Flatten)             (None, 94)           0           user_embedding[0][0]             
# __________________________________________________________________________________________________
# user_feature_input (InputLayer) (None, 1000)         0                                            
# __________________________________________________________________________________________________
# concatenate_1 (Concatenate)     (None, 1094)         0           flatten_1[0][0]                  
#                                                                  user_feature_input[0][0]         
# __________________________________________________________________________________________________
# user_feature_item_latent1 (Dens (None, 94)           102930      concatenate_1[0][0]              
# __________________________________________________________________________________________________
# item_input (InputLayer)         (None, 1)            0                                            
# __________________________________________________________________________________________________
# user_feature_item_latent_bn1 (B (None, 94)           376         user_feature_item_latent1[0][0]  
# __________________________________________________________________________________________________
# item_embedding (Embedding)      (None, 1, 94)        188000      item_input[0][0]                 
# __________________________________________________________________________________________________
# leaky_re_lu_1 (LeakyReLU)       (None, 94)           0           user_feature_item_latent_bn1[0][0
# __________________________________________________________________________________________________
# flatten_2 (Flatten)             (None, 94)           0           item_embedding[0][0]             
# __________________________________________________________________________________________________
# multiply_1 (Multiply)           (None, 94)           0           leaky_re_lu_1[0][0]              
#                                                                  flatten_2[0][0]                  
# __________________________________________________________________________________________________
# prediction (Dense)              (None, 1)            95          multiply_1[0][0]                 
# ==================================================================================================
# Total params: 2,171,401
# Trainable params: 2,171,213
# Non-trainable params: 188
# __________________________________________________________________________________________________
# None
# 
# Performing k-fold 1
# Init: Recall = 0.0255, Jaccard score = 0.0153
…
