…
eg_mf=0, test_dataset=1, topk=3, verbose=1) 
# The best NeuMF model will be saved to Pretrain/_MLP_8_[512,96]_1566387329.h5
--weights_path: Pretrain/_MLP_8_[512,96]_1566387329.h5
# Load data done [1.7 s]. #user=20000, #item=2000, #train=161729, #test=eval_recall
# __________________________________________________________________________________________________
# Layer (type)                    Output Shape         Param #     Connected to                     
# ==================================================================================================
# user_feature_input (InputLayer) (None, 1000)         0                                            
# __________________________________________________________________________________________________
# user_input (InputLayer)         (None, 1)            0                                            
# __________________________________________________________________________________________________
# feature_dense_layer (Dense)     (None, 768)          768768      user_feature_input[0][0]         
# __________________________________________________________________________________________________
# user_embedding (Embedding)      (None, 1, 256)       5120000     user_input[0][0]                 
# __________________________________________________________________________________________________
# batch_normalization_1 (BatchNor (None, 768)          3072        feature_dense_layer[0][0]        
# __________________________________________________________________________________________________
# item_input (InputLayer)         (None, 1)            0                                            
# __________________________________________________________________________________________________
# flatten_1 (Flatten)             (None, 256)          0           user_embedding[0][0]             
# __________________________________________________________________________________________________
# leaky_re_lu_1 (LeakyReLU)       (None, 768)          0           batch_normalization_1[0][0]      
# __________________________________________________________________________________________________
# item_embedding (Embedding)      (None, 1, 256)       512000      item_input[0][0]                 
# __________________________________________________________________________________________________
# concatenate_1 (Concatenate)     (None, 1024)         0           flatten_1[0][0]                  
#                                                                  leaky_re_lu_1[0][0]              
# __________________________________________________________________________________________________
# flatten_2 (Flatten)             (None, 256)          0           item_embedding[0][0]             
# __________________________________________________________________________________________________
# concatenate_2 (Concatenate)     (None, 1280)         0           concatenate_1[0][0]              
#                                                                  flatten_2[0][0]                  
# __________________________________________________________________________________________________
# layer1 (Dense)                  (None, 96)           122976      concatenate_2[0][0]              
# __________________________________________________________________________________________________
# batch_normalization_2 (BatchNor (None, 96)           384         layer1[0][0]                     
# __________________________________________________________________________________________________
# leaky_re_lu_2 (LeakyReLU)       (None, 96)           0           batch_normalization_2[0][0]      
# __________________________________________________________________________________________________
# prediction (Dense)              (None, 1)            97          leaky_re_lu_2[0][0]              
# ==================================================================================================
# Total params: 6,527,297
# Trainable params: 6,525,569
# Non-trainable params: 1,728
# __________________________________________________________________________________________________
# None
# 
# Performing k-fold 1
# Init: Recall = 0.0298, Jaccard score = 0.0180
…
