…
taset=1, topk=3, verbose=1) 
# The best NeuMF model will be saved to Pretrain/_MLP_8_[512,256,128,96]_1566294125.h5
--weights_path: Pretrain/_MLP_8_[512,256,128,96]_1566294125.h5
# Load data done [1.7 s]. #user=20000, #item=2000, #train=147903, #test=eval_recall
# __________________________________________________________________________________________________
# Layer (type)                    Output Shape         Param #     Connected to                     
# ==================================================================================================
# user_input (InputLayer)         (None, 1)            0                                            
# __________________________________________________________________________________________________
# user_embedding (Embedding)      (None, 1, 256)       5120000     user_input[0][0]                 
# __________________________________________________________________________________________________
# item_input (InputLayer)         (None, 1)            0                                            
# __________________________________________________________________________________________________
# flatten_1 (Flatten)             (None, 256)          0           user_embedding[0][0]             
# __________________________________________________________________________________________________
# user_features (InputLayer)      (None, 1000)         0                                            
# __________________________________________________________________________________________________
# item_embedding (Embedding)      (None, 1, 256)       512000      item_input[0][0]                 
# __________________________________________________________________________________________________
# concatenate_1 (Concatenate)     (None, 1256)         0           flatten_1[0][0]                  
#                                                                  user_features[0][0]              
# __________________________________________________________________________________________________
# flatten_2 (Flatten)             (None, 256)          0           item_embedding[0][0]             
# __________________________________________________________________________________________________
# concatenate_2 (Concatenate)     (None, 1512)         0           concatenate_1[0][0]              
#                                                                  flatten_2[0][0]                  
# __________________________________________________________________________________________________
# layer1 (Dense)                  (None, 256)          387328      concatenate_2[0][0]              
# __________________________________________________________________________________________________
# batch_normalization_1 (BatchNor (None, 256)          1024        layer1[0][0]                     
# __________________________________________________________________________________________________
# leaky_re_lu_1 (LeakyReLU)       (None, 256)          0           batch_normalization_1[0][0]      
# __________________________________________________________________________________________________
# layer2 (Dense)                  (None, 128)          32896       leaky_re_lu_1[0][0]              
# __________________________________________________________________________________________________
# batch_normalization_2 (BatchNor (None, 128)          512         layer2[0][0]                     
# __________________________________________________________________________________________________
# leaky_re_lu_2 (LeakyReLU)       (None, 128)          0           batch_normalization_2[0][0]      
# __________________________________________________________________________________________________
# layer3 (Dense)                  (None, 96)           12384       leaky_re_lu_2[0][0]              
# __________________________________________________________________________________________________
# batch_normalization_3 (BatchNor (None, 96)           384         layer3[0][0]                     
# __________________________________________________________________________________________________
# leaky_re_lu_3 (LeakyReLU)       (None, 96)           0           batch_normalization_3[0][0]      
# __________________________________________________________________________________________________
# prediction (Dense)              (None, 1)            97          leaky_re_lu_3[0][0]              
# ==================================================================================================
# Total params: 6,066,625
# Trainable params: 6,065,665
# Non-trainable params: 960
# __________________________________________________________________________________________________
# None
# 
# Performing k-fold 1
# Init: Recall = 0.0289, Jaccard score = 0.0213
…
taset=1, topk=3, verbose=1) 
# The best NeuMF model will be saved to Pretrain/_MLP_8_[512,256,128,96]_1566295697.h5
--weights_path: Pretrain/_MLP_8_[512,256,128,96]_1566295697.h5
# Load data done [1.7 s]. #user=20000, #item=2000, #train=147903, #test=eval_recall
# __________________________________________________________________________________________________
# Layer (type)                    Output Shape         Param #     Connected to                     
# ==================================================================================================
# user_feature_input (InputLayer) (None, 1000)         0                                            
# __________________________________________________________________________________________________
# user_input (InputLayer)         (None, 1)            0                                            
# __________________________________________________________________________________________________
# feature_dense_layer (Dense)     (None, 512)          512512      user_feature_input[0][0]         
# __________________________________________________________________________________________________
# user_embedding (Embedding)      (None, 1, 256)       5120000     user_input[0][0]                 
# __________________________________________________________________________________________________
# batch_normalization_1 (BatchNor (None, 512)          2048        feature_dense_layer[0][0]        
# __________________________________________________________________________________________________
# item_input (InputLayer)         (None, 1)            0                                            
# __________________________________________________________________________________________________
# flatten_1 (Flatten)             (None, 256)          0           user_embedding[0][0]             
# __________________________________________________________________________________________________
# leaky_re_lu_1 (LeakyReLU)       (None, 512)          0           batch_normalization_1[0][0]      
# __________________________________________________________________________________________________
# item_embedding (Embedding)      (None, 1, 256)       512000      item_input[0][0]                 
# __________________________________________________________________________________________________
# concatenate_1 (Concatenate)     (None, 768)          0           flatten_1[0][0]                  
#                                                                  leaky_re_lu_1[0][0]              
# __________________________________________________________________________________________________
# flatten_2 (Flatten)             (None, 256)          0           item_embedding[0][0]             
# __________________________________________________________________________________________________
# concatenate_2 (Concatenate)     (None, 1024)         0           concatenate_1[0][0]              
#                                                                  flatten_2[0][0]                  
# __________________________________________________________________________________________________
# layer1 (Dense)                  (None, 256)          262400      concatenate_2[0][0]              
# __________________________________________________________________________________________________
# batch_normalization_2 (BatchNor (None, 256)          1024        layer1[0][0]                     
# __________________________________________________________________________________________________
# leaky_re_lu_2 (LeakyReLU)       (None, 256)          0           batch_normalization_2[0][0]      
# __________________________________________________________________________________________________
# layer2 (Dense)                  (None, 128)          32896       leaky_re_lu_2[0][0]              
# __________________________________________________________________________________________________
# batch_normalization_3 (BatchNor (None, 128)          512         layer2[0][0]                     
# __________________________________________________________________________________________________
# leaky_re_lu_3 (LeakyReLU)       (None, 128)          0           batch_normalization_3[0][0]      
# __________________________________________________________________________________________________
# layer3 (Dense)                  (None, 96)           12384       leaky_re_lu_3[0][0]              
# __________________________________________________________________________________________________
# batch_normalization_4 (BatchNor (None, 96)           384         layer3[0][0]                     
# __________________________________________________________________________________________________
# leaky_re_lu_4 (LeakyReLU)       (None, 96)           0           batch_normalization_4[0][0]      
# __________________________________________________________________________________________________
# prediction (Dense)              (None, 1)            97          leaky_re_lu_4[0][0]              
# ==================================================================================================
# Total params: 6,456,257
# Trainable params: 6,454,273
# Non-trainable params: 1,984
# __________________________________________________________________________________________________
# None
# 
# Performing k-fold 1
# Init: Recall = 0.0316, Jaccard score = 0.0233
…
taset=1, topk=3, verbose=1) 
# The best NeuMF model will be saved to Pretrain/_MLP_8_[512,256,128,96]_1566296564.h5
--weights_path: Pretrain/_MLP_8_[512,256,128,96]_1566296564.h5
# Load data done [1.8 s]. #user=20000, #item=2000, #train=147903, #test=eval_recall
# __________________________________________________________________________________________________
# Layer (type)                    Output Shape         Param #     Connected to                     
# ==================================================================================================
# user_feature_input (InputLayer) (None, 1000)         0                                            
# __________________________________________________________________________________________________
# user_input (InputLayer)         (None, 1)            0                                            
# __________________________________________________________________________________________________
# feature_dense_layer (Dense)     (None, 256)          256256      user_feature_input[0][0]         
# __________________________________________________________________________________________________
# user_embedding (Embedding)      (None, 1, 256)       5120000     user_input[0][0]                 
# __________________________________________________________________________________________________
# batch_normalization_1 (BatchNor (None, 256)          1024        feature_dense_layer[0][0]        
# __________________________________________________________________________________________________
# item_input (InputLayer)         (None, 1)            0                                            
# __________________________________________________________________________________________________
# flatten_1 (Flatten)             (None, 256)          0           user_embedding[0][0]             
# __________________________________________________________________________________________________
# leaky_re_lu_1 (LeakyReLU)       (None, 256)          0           batch_normalization_1[0][0]      
# __________________________________________________________________________________________________
# item_embedding (Embedding)      (None, 1, 256)       512000      item_input[0][0]                 
# __________________________________________________________________________________________________
# concatenate_1 (Concatenate)     (None, 512)          0           flatten_1[0][0]                  
#                                                                  leaky_re_lu_1[0][0]              
# __________________________________________________________________________________________________
# flatten_2 (Flatten)             (None, 256)          0           item_embedding[0][0]             
# __________________________________________________________________________________________________
# concatenate_2 (Concatenate)     (None, 768)          0           concatenate_1[0][0]              
#                                                                  flatten_2[0][0]                  
# __________________________________________________________________________________________________
# layer1 (Dense)                  (None, 256)          196864      concatenate_2[0][0]              
# __________________________________________________________________________________________________
# batch_normalization_2 (BatchNor (None, 256)          1024        layer1[0][0]                     
# __________________________________________________________________________________________________
# leaky_re_lu_2 (LeakyReLU)       (None, 256)          0           batch_normalization_2[0][0]      
# __________________________________________________________________________________________________
# layer2 (Dense)                  (None, 128)          32896       leaky_re_lu_2[0][0]              
# __________________________________________________________________________________________________
# batch_normalization_3 (BatchNor (None, 128)          512         layer2[0][0]                     
# __________________________________________________________________________________________________
# leaky_re_lu_3 (LeakyReLU)       (None, 128)          0           batch_normalization_3[0][0]      
# __________________________________________________________________________________________________
# layer3 (Dense)                  (None, 96)           12384       leaky_re_lu_3[0][0]              
# __________________________________________________________________________________________________
# batch_normalization_4 (BatchNor (None, 96)           384         layer3[0][0]                     
# __________________________________________________________________________________________________
# leaky_re_lu_4 (LeakyReLU)       (None, 96)           0           batch_normalization_4[0][0]      
# __________________________________________________________________________________________________
# prediction (Dense)              (None, 1)            97          leaky_re_lu_4[0][0]              
# ==================================================================================================
# Total params: 6,133,441
# Trainable params: 6,131,969
# Non-trainable params: 1,472
# __________________________________________________________________________________________________
# None
# 
# Performing k-fold 1
# Init: Recall = 0.0288, Jaccard score = 0.0212
…
eg_mf=0, test_dataset=1, topk=3, verbose=1) 
# The best NeuMF model will be saved to Pretrain/_MLP_8_[512,96]_1566381203.h5
--weights_path: Pretrain/_MLP_8_[512,96]_1566381203.h5
# Load data done [1.8 s]. #user=20000, #item=2000, #train=147903, #test=eval_recall
# __________________________________________________________________________________________________
# Layer (type)                    Output Shape         Param #     Connected to                     
# ==================================================================================================
# user_feature_input (InputLayer) (None, 1000)         0                                            
# __________________________________________________________________________________________________
# user_input (InputLayer)         (None, 1)            0                                            
# __________________________________________________________________________________________________
# feature_dense_layer (Dense)     (None, 256)          256256      user_feature_input[0][0]         
# __________________________________________________________________________________________________
# user_embedding (Embedding)      (None, 1, 256)       5120000     user_input[0][0]                 
# __________________________________________________________________________________________________
# batch_normalization_1 (BatchNor (None, 256)          1024        feature_dense_layer[0][0]        
# __________________________________________________________________________________________________
# item_input (InputLayer)         (None, 1)            0                                            
# __________________________________________________________________________________________________
# flatten_1 (Flatten)             (None, 256)          0           user_embedding[0][0]             
# __________________________________________________________________________________________________
# leaky_re_lu_1 (LeakyReLU)       (None, 256)          0           batch_normalization_1[0][0]      
# __________________________________________________________________________________________________
# item_embedding (Embedding)      (None, 1, 256)       512000      item_input[0][0]                 
# __________________________________________________________________________________________________
# concatenate_1 (Concatenate)     (None, 512)          0           flatten_1[0][0]                  
#                                                                  leaky_re_lu_1[0][0]              
# __________________________________________________________________________________________________
# flatten_2 (Flatten)             (None, 256)          0           item_embedding[0][0]             
# __________________________________________________________________________________________________
# concatenate_2 (Concatenate)     (None, 768)          0           concatenate_1[0][0]              
#                                                                  flatten_2[0][0]                  
# __________________________________________________________________________________________________
# layer1 (Dense)                  (None, 96)           73824       concatenate_2[0][0]              
# __________________________________________________________________________________________________
# batch_normalization_2 (BatchNor (None, 96)           384         layer1[0][0]                     
# __________________________________________________________________________________________________
# leaky_re_lu_2 (LeakyReLU)       (None, 96)           0           batch_normalization_2[0][0]      
# __________________________________________________________________________________________________
# prediction (Dense)              (None, 1)            97          leaky_re_lu_2[0][0]              
# ==================================================================================================
# Total params: 5,963,585
# Trainable params: 5,962,881
# Non-trainable params: 704
# __________________________________________________________________________________________________
# None
# 
# Performing k-fold 1
# Init: Recall = 0.0266, Jaccard score = 0.0196
…
eg_mf=0, test_dataset=1, topk=3, verbose=1) 
# The best NeuMF model will be saved to Pretrain/_MLP_8_[512,96]_1566381468.h5
--weights_path: Pretrain/_MLP_8_[512,96]_1566381468.h5
# Load data done [1.8 s]. #user=20000, #item=2000, #train=147903, #test=eval_recall
# __________________________________________________________________________________________________
# Layer (type)                    Output Shape         Param #     Connected to                     
# ==================================================================================================
# user_feature_input (InputLayer) (None, 1000)         0                                            
# __________________________________________________________________________________________________
# user_input (InputLayer)         (None, 1)            0                                            
# __________________________________________________________________________________________________
# feature_dense_layer (Dense)     (None, 128)          128128      user_feature_input[0][0]         
# __________________________________________________________________________________________________
# user_embedding (Embedding)      (None, 1, 256)       5120000     user_input[0][0]                 
# __________________________________________________________________________________________________
# batch_normalization_1 (BatchNor (None, 128)          512         feature_dense_layer[0][0]        
# __________________________________________________________________________________________________
# item_input (InputLayer)         (None, 1)            0                                            
# __________________________________________________________________________________________________
# flatten_1 (Flatten)             (None, 256)          0           user_embedding[0][0]             
# __________________________________________________________________________________________________
# leaky_re_lu_1 (LeakyReLU)       (None, 128)          0           batch_normalization_1[0][0]      
# __________________________________________________________________________________________________
# item_embedding (Embedding)      (None, 1, 256)       512000      item_input[0][0]                 
# __________________________________________________________________________________________________
# concatenate_1 (Concatenate)     (None, 384)          0           flatten_1[0][0]                  
#                                                                  leaky_re_lu_1[0][0]              
# __________________________________________________________________________________________________
# flatten_2 (Flatten)             (None, 256)          0           item_embedding[0][0]             
# __________________________________________________________________________________________________
# concatenate_2 (Concatenate)     (None, 640)          0           concatenate_1[0][0]              
#                                                                  flatten_2[0][0]                  
# __________________________________________________________________________________________________
# layer1 (Dense)                  (None, 96)           61536       concatenate_2[0][0]              
# __________________________________________________________________________________________________
# batch_normalization_2 (BatchNor (None, 96)           384         layer1[0][0]                     
# __________________________________________________________________________________________________
# leaky_re_lu_2 (LeakyReLU)       (None, 96)           0           batch_normalization_2[0][0]      
# __________________________________________________________________________________________________
# prediction (Dense)              (None, 1)            97          leaky_re_lu_2[0][0]              
# ==================================================================================================
# Total params: 5,822,657
# Trainable params: 5,822,209
# Non-trainable params: 448
# __________________________________________________________________________________________________
# None
# 
# Performing k-fold 1
# Init: Recall = 0.0265, Jaccard score = 0.0195
…
eg_mf=0, test_dataset=1, topk=3, verbose=1) 
# The best NeuMF model will be saved to Pretrain/_MLP_8_[512,96]_1566381842.h5
--weights_path: Pretrain/_MLP_8_[512,96]_1566381842.h5
# Load data done [1.8 s]. #user=20000, #item=2000, #train=147903, #test=eval_recall
# __________________________________________________________________________________________________
# Layer (type)                    Output Shape         Param #     Connected to                     
# ==================================================================================================
# user_feature_input (InputLayer) (None, 1000)         0                                            
# __________________________________________________________________________________________________
# user_input (InputLayer)         (None, 1)            0                                            
# __________________________________________________________________________________________________
# feature_dense_layer (Dense)     (None, 342)          342342      user_feature_input[0][0]         
# __________________________________________________________________________________________________
# user_embedding (Embedding)      (None, 1, 256)       5120000     user_input[0][0]                 
# __________________________________________________________________________________________________
# batch_normalization_1 (BatchNor (None, 342)          1368        feature_dense_layer[0][0]        
# __________________________________________________________________________________________________
# item_input (InputLayer)         (None, 1)            0                                            
# __________________________________________________________________________________________________
# flatten_1 (Flatten)             (None, 256)          0           user_embedding[0][0]             
# __________________________________________________________________________________________________
# leaky_re_lu_1 (LeakyReLU)       (None, 342)          0           batch_normalization_1[0][0]      
# __________________________________________________________________________________________________
# item_embedding (Embedding)      (None, 1, 256)       512000      item_input[0][0]                 
# __________________________________________________________________________________________________
# concatenate_1 (Concatenate)     (None, 598)          0           flatten_1[0][0]                  
#                                                                  leaky_re_lu_1[0][0]              
# __________________________________________________________________________________________________
# flatten_2 (Flatten)             (None, 256)          0           item_embedding[0][0]             
# __________________________________________________________________________________________________
# concatenate_2 (Concatenate)     (None, 854)          0           concatenate_1[0][0]              
#                                                                  flatten_2[0][0]                  
# __________________________________________________________________________________________________
# layer1 (Dense)                  (None, 96)           82080       concatenate_2[0][0]              
# __________________________________________________________________________________________________
# batch_normalization_2 (BatchNor (None, 96)           384         layer1[0][0]                     
# __________________________________________________________________________________________________
# leaky_re_lu_2 (LeakyReLU)       (None, 96)           0           batch_normalization_2[0][0]      
# __________________________________________________________________________________________________
# prediction (Dense)              (None, 1)            97          leaky_re_lu_2[0][0]              
# ==================================================================================================
# Total params: 6,058,271
# Trainable params: 6,057,395
# Non-trainable params: 876
# __________________________________________________________________________________________________
# None
# 
# Performing k-fold 1
# Init: Recall = 0.0340, Jaccard score = 0.0251
…
eg_mf=0, test_dataset=1, topk=3, verbose=1) 
# The best NeuMF model will be saved to Pretrain/_MLP_8_[512,96]_1566382544.h5
--weights_path: Pretrain/_MLP_8_[512,96]_1566382544.h5
# Load data done [1.7 s]. #user=20000, #item=2000, #train=147903, #test=eval_recall
# __________________________________________________________________________________________________
# Layer (type)                    Output Shape         Param #     Connected to                     
# ==================================================================================================
# user_feature_input (InputLayer) (None, 1000)         0                                            
# __________________________________________________________________________________________________
# user_input (InputLayer)         (None, 1)            0                                            
# __________________________________________________________________________________________________
# feature_dense_layer (Dense)     (None, 768)          768768      user_feature_input[0][0]         
# __________________________________________________________________________________________________
# user_embedding (Embedding)      (None, 1, 256)       5120000     user_input[0][0]                 
# __________________________________________________________________________________________________
# batch_normalization_1 (BatchNor (None, 768)          3072        feature_dense_layer[0][0]        
# __________________________________________________________________________________________________
# item_input (InputLayer)         (None, 1)            0                                            
# __________________________________________________________________________________________________
# flatten_1 (Flatten)             (None, 256)          0           user_embedding[0][0]             
# __________________________________________________________________________________________________
# leaky_re_lu_1 (LeakyReLU)       (None, 768)          0           batch_normalization_1[0][0]      
# __________________________________________________________________________________________________
# item_embedding (Embedding)      (None, 1, 256)       512000      item_input[0][0]                 
# __________________________________________________________________________________________________
# concatenate_1 (Concatenate)     (None, 1024)         0           flatten_1[0][0]                  
#                                                                  leaky_re_lu_1[0][0]              
# __________________________________________________________________________________________________
# flatten_2 (Flatten)             (None, 256)          0           item_embedding[0][0]             
# __________________________________________________________________________________________________
# concatenate_2 (Concatenate)     (None, 1280)         0           concatenate_1[0][0]              
#                                                                  flatten_2[0][0]                  
# __________________________________________________________________________________________________
# layer1 (Dense)                  (None, 96)           122976      concatenate_2[0][0]              
# __________________________________________________________________________________________________
# batch_normalization_2 (BatchNor (None, 96)           384         layer1[0][0]                     
# __________________________________________________________________________________________________
# leaky_re_lu_2 (LeakyReLU)       (None, 96)           0           batch_normalization_2[0][0]      
# __________________________________________________________________________________________________
# prediction (Dense)              (None, 1)            97          leaky_re_lu_2[0][0]              
# ==================================================================================================
# Total params: 6,527,297
# Trainable params: 6,525,569
# Non-trainable params: 1,728
# __________________________________________________________________________________________________
# None
# 
# Performing k-fold 1
# Init: Recall = 0.0224, Jaccard score = 0.0165
…
eg_mf=0, test_dataset=1, topk=3, verbose=1) 
# The best NeuMF model will be saved to Pretrain/_MLP_8_[512,96]_1566382947.h5
--weights_path: Pretrain/_MLP_8_[512,96]_1566382947.h5
# Load data done [1.6 s]. #user=20000, #item=2000, #train=147903, #test=eval_recall
# __________________________________________________________________________________________________
# Layer (type)                    Output Shape         Param #     Connected to                     
# ==================================================================================================
# user_feature_input (InputLayer) (None, 1000)         0                                            
# __________________________________________________________________________________________________
# user_input (InputLayer)         (None, 1)            0                                            
# __________________________________________________________________________________________________
# feature_dense_layer (Dense)     (None, 1024)         1025024     user_feature_input[0][0]         
# __________________________________________________________________________________________________
# user_embedding (Embedding)      (None, 1, 256)       5120000     user_input[0][0]                 
# __________________________________________________________________________________________________
# batch_normalization_1 (BatchNor (None, 1024)         4096        feature_dense_layer[0][0]        
# __________________________________________________________________________________________________
# item_input (InputLayer)         (None, 1)            0                                            
# __________________________________________________________________________________________________
# flatten_1 (Flatten)             (None, 256)          0           user_embedding[0][0]             
# __________________________________________________________________________________________________
# leaky_re_lu_1 (LeakyReLU)       (None, 1024)         0           batch_normalization_1[0][0]      
# __________________________________________________________________________________________________
# item_embedding (Embedding)      (None, 1, 256)       512000      item_input[0][0]                 
# __________________________________________________________________________________________________
# concatenate_1 (Concatenate)     (None, 1280)         0           flatten_1[0][0]                  
#                                                                  leaky_re_lu_1[0][0]              
# __________________________________________________________________________________________________
# flatten_2 (Flatten)             (None, 256)          0           item_embedding[0][0]             
# __________________________________________________________________________________________________
# concatenate_2 (Concatenate)     (None, 1536)         0           concatenate_1[0][0]              
#                                                                  flatten_2[0][0]                  
# __________________________________________________________________________________________________
# layer1 (Dense)                  (None, 96)           147552      concatenate_2[0][0]              
# __________________________________________________________________________________________________
# batch_normalization_2 (BatchNor (None, 96)           384         layer1[0][0]                     
# __________________________________________________________________________________________________
# leaky_re_lu_2 (LeakyReLU)       (None, 96)           0           batch_normalization_2[0][0]      
# __________________________________________________________________________________________________
# prediction (Dense)              (None, 1)            97          leaky_re_lu_2[0][0]              
# ==================================================================================================
# Total params: 6,809,153
# Trainable params: 6,806,913
# Non-trainable params: 2,240
# __________________________________________________________________________________________________
# None
# 
# Performing k-fold 1
# Init: Recall = 0.0254, Jaccard score = 0.0187
…
