…
est_dataset=0, topk=3, verbose=1) 
# The best NeuMF model will be saved to Pretrain/_GMF_94_[64,32,16,8]_1569618822.h5
--weights_path: Pretrain/_GMF_94_[64,32,16,8]_1569618822.h5
# Load data done [1.7 s]. #user=18000, #item=2000, #train=161301, #test=eval_recall
# __________________________________________________________________________________________________
# Layer (type)                    Output Shape         Param #     Connected to                     
# ==================================================================================================
# user_input (InputLayer)         (None, 1)            0                                            
# __________________________________________________________________________________________________
# item_input (InputLayer)         (None, 1)            0                                            
# __________________________________________________________________________________________________
# user_embedding (Embedding)      (None, 1, 94)        1692000     user_input[0][0]                 
# __________________________________________________________________________________________________
# item_embedding (Embedding)      (None, 1, 94)        188000      item_input[0][0]                 
# __________________________________________________________________________________________________
# flatten_11 (Flatten)            (None, 94)           0           user_embedding[0][0]             
# __________________________________________________________________________________________________
# flatten_12 (Flatten)            (None, 94)           0           item_embedding[0][0]             
# __________________________________________________________________________________________________
# batch_normalization_1 (BatchNor (None, 94)           376         flatten_11[0][0]                 
# __________________________________________________________________________________________________
# batch_normalization_2 (BatchNor (None, 94)           376         flatten_12[0][0]                 
# __________________________________________________________________________________________________
# dropout_21 (Dropout)            (None, 94)           0           batch_normalization_1[0][0]      
# __________________________________________________________________________________________________
# dropout_22 (Dropout)            (None, 94)           0           batch_normalization_2[0][0]      
# __________________________________________________________________________________________________
# multiply_1 (Multiply)           (None, 94)           0           dropout_21[0][0]                 
#                                                                  dropout_22[0][0]                 
# __________________________________________________________________________________________________
# prediction (Dense)              (None, 1)            95          multiply_1[0][0]                 
# ==================================================================================================
# Total params: 1,880,847
# Trainable params: 1,880,471
# Non-trainable params: 376
# __________________________________________________________________________________________________
# None
# 
# Performing k-fold 1
# Init: Recall = 0.0281, Jaccard score = 0.0169
…
