…
eg_mf=0, test_dataset=0, topk=3, verbose=1) 
# The best NeuMF model will be saved to Pretrain/_MLP_8_[512,96]_1569662838.h5
--weights_path: Pretrain/_MLP_8_[512,96]_1569662838.h5
# Load data done [1.6 s]. #user=18000, #item=2000, #train=161301, #test=eval_recall
# __________________________________________________________________________________________________
# Layer (type)                    Output Shape         Param #     Connected to                     
# ==================================================================================================
# user_input (InputLayer)         (None, 1)            0                                            
# __________________________________________________________________________________________________
# user_embedding (Embedding)      (None, 1, 256)       4608000     user_input[0][0]                 
# __________________________________________________________________________________________________
# item_input (InputLayer)         (None, 1)            0                                            
# __________________________________________________________________________________________________
# flatten_1 (Flatten)             (None, 256)          0           user_embedding[0][0]             
# __________________________________________________________________________________________________
# item_embedding (Embedding)      (None, 1, 256)       512000      item_input[0][0]                 
# __________________________________________________________________________________________________
# bn_user (BatchNormalization)    (None, 256)          1024        flatten_1[0][0]                  
# __________________________________________________________________________________________________
# flatten_2 (Flatten)             (None, 256)          0           item_embedding[0][0]             
# __________________________________________________________________________________________________
# dropout_1 (Dropout)             (None, 256)          0           bn_user[0][0]                    
# __________________________________________________________________________________________________
# user_feature_input (InputLayer) (None, 1000)         0                                            
# __________________________________________________________________________________________________
# bn_item (BatchNormalization)    (None, 256)          1024        flatten_2[0][0]                  
# __________________________________________________________________________________________________
# concatenate_1 (Concatenate)     (None, 1256)         0           dropout_1[0][0]                  
#                                                                  user_feature_input[0][0]         
# __________________________________________________________________________________________________
# dropout_2 (Dropout)             (None, 256)          0           bn_item[0][0]                    
# __________________________________________________________________________________________________
# concatenate_2 (Concatenate)     (None, 1512)         0           concatenate_1[0][0]              
#                                                                  dropout_2[0][0]                  
# __________________________________________________________________________________________________
# layer1 (Dense)                  (None, 96)           145248      concatenate_2[0][0]              
# __________________________________________________________________________________________________
# dropout_3 (Dropout)             (None, 96)           0           layer1[0][0]                     
# __________________________________________________________________________________________________
# prediction (Dense)              (None, 1)            97          dropout_3[0][0]                  
# ==================================================================================================
# Total params: 5,267,393
# Trainable params: 5,266,369
# Non-trainable params: 1,024
# __________________________________________________________________________________________________
# None
# 
# Performing k-fold 1
# Init: Recall = 0.0397, Jaccard score = 0.0241
…
