…
aset=1, topk=10, verbose=1) 
# The best NeuMF model will be saved to Pretrain/_MLP_8_[512,750,350,96]_1569796063.h5
--weights_path: Pretrain/_MLP_8_[512,750,350,96]_1569796063.h5
# Load data done [2.0 s]. #user=20000, #item=2000, #train=161729, #test=eval_recall
# __________________________________________________________________________________________________
# Layer (type)                    Output Shape         Param #     Connected to                     
# ==================================================================================================
# user_input (InputLayer)         (None, 1)            0                                            
# __________________________________________________________________________________________________
# user_embedding (Embedding)      (None, 1, 256)       5120000     user_input[0][0]                 
# __________________________________________________________________________________________________
# item_input (InputLayer)         (None, 1)            0                                            
# __________________________________________________________________________________________________
# flatten_11 (Flatten)            (None, 256)          0           user_embedding[0][0]             
# __________________________________________________________________________________________________
# item_embedding (Embedding)      (None, 1, 256)       512000      item_input[0][0]                 
# __________________________________________________________________________________________________
# dropout_16 (Dropout)            (None, 256)          0           flatten_11[0][0]                 
# __________________________________________________________________________________________________
# user_feature_input (InputLayer) (None, 1000)         0                                            
# __________________________________________________________________________________________________
# flatten_12 (Flatten)            (None, 256)          0           item_embedding[0][0]             
# __________________________________________________________________________________________________
# concatenate_11 (Concatenate)    (None, 1256)         0           dropout_16[0][0]                 
#                                                                  user_feature_input[0][0]         
# __________________________________________________________________________________________________
# dropout_17 (Dropout)            (None, 256)          0           flatten_12[0][0]                 
# __________________________________________________________________________________________________
# concatenate_12 (Concatenate)    (None, 1512)         0           concatenate_11[0][0]             
#                                                                  dropout_17[0][0]                 
# __________________________________________________________________________________________________
# layer1 (Dense)                  (None, 750)          1134750     concatenate_12[0][0]             
# __________________________________________________________________________________________________
# dropout_18 (Dropout)            (None, 750)          0           layer1[0][0]                     
# __________________________________________________________________________________________________
# layer2 (Dense)                  (None, 350)          262850      dropout_18[0][0]                 
# __________________________________________________________________________________________________
# dropout_19 (Dropout)            (None, 350)          0           layer2[0][0]                     
# __________________________________________________________________________________________________
# layer3 (Dense)                  (None, 96)           33696       dropout_19[0][0]                 
# __________________________________________________________________________________________________
# dropout_20 (Dropout)            (None, 96)           0           layer3[0][0]                     
# __________________________________________________________________________________________________
# prediction (Dense)              (None, 1)            97          dropout_20[0][0]                 
# ==================================================================================================
# Total params: 7,063,393
# Trainable params: 7,063,393
# Non-trainable params: 0
# __________________________________________________________________________________________________
# None
# 
# Performing k-fold 1
# Init: Recall = 0.0055, Jaccard score = 0.0017
…
