…
st_dataset=1, topk=10, verbose=1) 
# The best NeuMF model will be saved to Pretrain/_GMF_94_[64,32,16,8]_1569901590.h5
--weights_path: Pretrain/_GMF_94_[64,32,16,8]_1569901590.h5
# Load data done [1.6 s]. #user=20000, #item=2000, #train=143502, #test=eval_recall
# __________________________________________________________________________________________________
# Layer (type)                    Output Shape         Param #     Connected to                     
# ==================================================================================================
# user_input (InputLayer)         (None, 1)            0                                            
# __________________________________________________________________________________________________
# item_input (InputLayer)         (None, 1)            0                                            
# __________________________________________________________________________________________________
# user_embedding (Embedding)      (None, 1, 94)        1880000     user_input[0][0]                 
# __________________________________________________________________________________________________
# item_embedding (Embedding)      (None, 1, 94)        188000      item_input[0][0]                 
# __________________________________________________________________________________________________
# flatten_13 (Flatten)            (None, 94)           0           user_embedding[0][0]             
# __________________________________________________________________________________________________
# flatten_14 (Flatten)            (None, 94)           0           item_embedding[0][0]             
# __________________________________________________________________________________________________
# batch_normalization_3 (BatchNor (None, 94)           376         flatten_13[0][0]                 
# __________________________________________________________________________________________________
# batch_normalization_4 (BatchNor (None, 94)           376         flatten_14[0][0]                 
# __________________________________________________________________________________________________
# dropout_20 (Dropout)            (None, 94)           0           batch_normalization_3[0][0]      
# __________________________________________________________________________________________________
# dropout_21 (Dropout)            (None, 94)           0           batch_normalization_4[0][0]      
# __________________________________________________________________________________________________
# multiply_3 (Multiply)           (None, 94)           0           dropout_20[0][0]                 
#                                                                  dropout_21[0][0]                 
# __________________________________________________________________________________________________
# prediction (Dense)              (None, 1)            95          multiply_3[0][0]                 
# ==================================================================================================
# Total params: 2,068,847
# Trainable params: 2,068,471
# Non-trainable params: 376
# __________________________________________________________________________________________________
# None
# 
# Performing k-fold 1
# Init: Recall = 0.0051, Jaccard score = 0.0024
…
