…
, test_dataset=1, topk=10, verbose=1) 
# The best NeuMF model will be saved to Pretrain/_NeuMF_94_[512,96]_1568890768.h5
--weights_path: Pretrain/_NeuMF_94_[512,96]_1568890768.h5
# Load data done [1.9 s]. #user=20000, #item=2000, #train=161729, #test=eval_recall
# __________________________________________________________________________________________________
# Layer (type)                    Output Shape         Param #     Connected to                     
# ==================================================================================================
# user_input (InputLayer)         (None, 1)            0                                            
# __________________________________________________________________________________________________
# item_input (InputLayer)         (None, 1)            0                                            
# __________________________________________________________________________________________________
# mlp_embedding_user (Embedding)  (None, 1, 256)       5120000     user_input[0][0]                 
# __________________________________________________________________________________________________
# flatten_9 (Flatten)             (None, 256)          0           mlp_embedding_user[0][0]         
# __________________________________________________________________________________________________
# user_feature_input (InputLayer) (None, 1000)         0                                            
# __________________________________________________________________________________________________
# mlp_embedding_item (Embedding)  (None, 1, 256)       512000      item_input[0][0]                 
# __________________________________________________________________________________________________
# mf_embedding_user (Embedding)   (None, 1, 94)        1880000     user_input[0][0]                 
# __________________________________________________________________________________________________
# mf_embedding_item (Embedding)   (None, 1, 94)        188000      item_input[0][0]                 
# __________________________________________________________________________________________________
# concatenate_3 (Concatenate)     (None, 1256)         0           flatten_9[0][0]                  
#                                                                  user_feature_input[0][0]         
# __________________________________________________________________________________________________
# flatten_10 (Flatten)            (None, 256)          0           mlp_embedding_item[0][0]         
# __________________________________________________________________________________________________
# flatten_7 (Flatten)             (None, 94)           0           mf_embedding_user[0][0]          
# __________________________________________________________________________________________________
# flatten_8 (Flatten)             (None, 94)           0           mf_embedding_item[0][0]          
# __________________________________________________________________________________________________
# concatenate_4 (Concatenate)     (None, 1512)         0           concatenate_3[0][0]              
#                                                                  flatten_10[0][0]                 
# __________________________________________________________________________________________________
# multiply_3 (Multiply)           (None, 94)           0           flatten_7[0][0]                  
#                                                                  flatten_8[0][0]                  
# __________________________________________________________________________________________________
# layer1 (Dense)                  (None, 96)           145248      concatenate_4[0][0]              
# __________________________________________________________________________________________________
# concatenate_5 (Concatenate)     (None, 190)          0           multiply_3[0][0]                 
#                                                                  layer1[0][0]                     
# __________________________________________________________________________________________________
# prediction (Dense)              (None, 1)            191         concatenate_5[0][0]              
# ==================================================================================================
# Total params: 7,845,439
# Trainable params: 7,845,439
# Non-trainable params: 0
# __________________________________________________________________________________________________
# None
# 
# Performing k-fold 1
# Init: Recall = 0.0054, Jaccard score = 0.0016
…
