…
--weights_path: Pretrain/_NeuMF_94_[512,96]_1568984296.h5
# Load data done [2.1 s]. #user=20000, #item=2000, #train=161729, #test=eval_recall
# Load pretrained GMF (Pretrain/_GMF_94_[64,32,16,8]_1568836629.h5) and MLP (Pretrain/_MLP_8_[512,96]_1568854058.h5) models done. 
# __________________________________________________________________________________________________
# Layer (type)                    Output Shape         Param #     Connected to                     
# ==================================================================================================
# user_input (InputLayer)         (None, 1)            0                                            
# __________________________________________________________________________________________________
# item_input (InputLayer)         (None, 1)            0                                            
# __________________________________________________________________________________________________
# mlp_embedding_user (Embedding)  (None, 1, 256)       5120000     user_input[0][0]                 
# __________________________________________________________________________________________________
# flatten_19 (Flatten)            (None, 256)          0           mlp_embedding_user[0][0]         
# __________________________________________________________________________________________________
# user_feature_input (InputLayer) (None, 1000)         0                                            
# __________________________________________________________________________________________________
# mlp_embedding_item (Embedding)  (None, 1, 256)       512000      item_input[0][0]                 
# __________________________________________________________________________________________________
# mf_embedding_user (Embedding)   (None, 1, 94)        1880000     user_input[0][0]                 
# __________________________________________________________________________________________________
# mf_embedding_item (Embedding)   (None, 1, 94)        188000      item_input[0][0]                 
# __________________________________________________________________________________________________
# concatenate_11 (Concatenate)    (None, 1256)         0           flatten_19[0][0]                 
#                                                                  user_feature_input[0][0]         
# __________________________________________________________________________________________________
# flatten_20 (Flatten)            (None, 256)          0           mlp_embedding_item[0][0]         
# __________________________________________________________________________________________________
# flatten_17 (Flatten)            (None, 94)           0           mf_embedding_user[0][0]          
# __________________________________________________________________________________________________
# flatten_18 (Flatten)            (None, 94)           0           mf_embedding_item[0][0]          
# __________________________________________________________________________________________________
# concatenate_12 (Concatenate)    (None, 1512)         0           concatenate_11[0][0]             
#                                                                  flatten_20[0][0]                 
# __________________________________________________________________________________________________
# multiply_5 (Multiply)           (None, 94)           0           flatten_17[0][0]                 
#                                                                  flatten_18[0][0]                 
# __________________________________________________________________________________________________
# layer1 (Dense)                  (None, 96)           145248      concatenate_12[0][0]             
# __________________________________________________________________________________________________
# concatenate_13 (Concatenate)    (None, 190)          0           multiply_5[0][0]                 
#                                                                  layer1[0][0]                     
# __________________________________________________________________________________________________
# prediction (Dense)              (None, 1)            191         concatenate_13[0][0]             
# ==================================================================================================
# Total params: 7,845,439
# Trainable params: 7,845,439
# Non-trainable params: 0
# __________________________________________________________________________________________________
# None
# 
# Performing k-fold 1
# Init: Recall = 0.3253, Jaccard score = 0.1099
…
