…
--weights_path: Pretrain/_NeuMF_94_[512,96]_1568978853.h5
# Load data done [1.6 s]. #user=20000, #item=2000, #train=147903, #test=eval_recall
# Load pretrained GMF (Pretrain/_GMF_94_[64,32,16,8]_1568794362.h5) and MLP (Pretrain/_MLP_8_[512,96]_1568748836.h5) models done. 
# __________________________________________________________________________________________________
# Layer (type)                    Output Shape         Param #     Connected to                     
# ==================================================================================================
# user_input (InputLayer)         (None, 1)            0                                            
# __________________________________________________________________________________________________
# item_input (InputLayer)         (None, 1)            0                                            
# __________________________________________________________________________________________________
# mlp_embedding_user (Embedding)  (None, 1, 256)       5120000     user_input[0][0]                 
# __________________________________________________________________________________________________
# flatten_11 (Flatten)            (None, 256)          0           mlp_embedding_user[0][0]         
# __________________________________________________________________________________________________
# user_feature_input (InputLayer) (None, 1000)         0                                            
# __________________________________________________________________________________________________
# mlp_embedding_item (Embedding)  (None, 1, 256)       512000      item_input[0][0]                 
# __________________________________________________________________________________________________
# mf_embedding_user (Embedding)   (None, 1, 94)        1880000     user_input[0][0]                 
# __________________________________________________________________________________________________
# mf_embedding_item (Embedding)   (None, 1, 94)        188000      item_input[0][0]                 
# __________________________________________________________________________________________________
# concatenate_6 (Concatenate)     (None, 1256)         0           flatten_11[0][0]                 
#                                                                  user_feature_input[0][0]         
# __________________________________________________________________________________________________
# flatten_12 (Flatten)            (None, 256)          0           mlp_embedding_item[0][0]         
# __________________________________________________________________________________________________
# flatten_9 (Flatten)             (None, 94)           0           mf_embedding_user[0][0]          
# __________________________________________________________________________________________________
# flatten_10 (Flatten)            (None, 94)           0           mf_embedding_item[0][0]          
# __________________________________________________________________________________________________
# concatenate_7 (Concatenate)     (None, 1512)         0           concatenate_6[0][0]              
#                                                                  flatten_12[0][0]                 
# __________________________________________________________________________________________________
# multiply_3 (Multiply)           (None, 94)           0           flatten_9[0][0]                  
#                                                                  flatten_10[0][0]                 
# __________________________________________________________________________________________________
# layer1 (Dense)                  (None, 96)           145248      concatenate_7[0][0]              
# __________________________________________________________________________________________________
# concatenate_8 (Concatenate)     (None, 190)          0           multiply_3[0][0]                 
#                                                                  layer1[0][0]                     
# __________________________________________________________________________________________________
# prediction (Dense)              (None, 1)            191         concatenate_8[0][0]              
# ==================================================================================================
# Total params: 7,845,439
# Trainable params: 7,845,439
# Non-trainable params: 0
# __________________________________________________________________________________________________
# None
# 
# Performing k-fold 1
# Init: Recall = 0.1577, Jaccard score = 0.0742
…
