…
aset=1, topk=10, verbose=1) 
# The best NeuMF model will be saved to Pretrain/_MLP_8_[512,750,350,96]_1569393806.h5
--weights_path: Pretrain/_MLP_8_[512,750,350,96]_1569393806.h5
# Load data done [1.7 s]. #user=20000, #item=2000, #train=161729, #test=eval_recall
# __________________________________________________________________________________________________
# Layer (type)                    Output Shape         Param #     Connected to                     
# ==================================================================================================
# user_input (InputLayer)         (None, 1)            0                                            
# __________________________________________________________________________________________________
# user_embedding (Embedding)      (None, 1, 256)       5120000     user_input[0][0]                 
# __________________________________________________________________________________________________
# item_input (InputLayer)         (None, 1)            0                                            
# __________________________________________________________________________________________________
# flatten_1 (Flatten)             (None, 256)          0           user_embedding[0][0]             
# __________________________________________________________________________________________________
# item_embedding (Embedding)      (None, 1, 256)       512000      item_input[0][0]                 
# __________________________________________________________________________________________________
# batch_normalization_1 (BatchNor (None, 256)          1024        flatten_1[0][0]                  
# __________________________________________________________________________________________________
# user_feature_input (InputLayer) (None, 1000)         0                                            
# __________________________________________________________________________________________________
# flatten_2 (Flatten)             (None, 256)          0           item_embedding[0][0]             
# __________________________________________________________________________________________________
# concatenate_1 (Concatenate)     (None, 1256)         0           batch_normalization_1[0][0]      
#                                                                  user_feature_input[0][0]         
# __________________________________________________________________________________________________
# batch_normalization_2 (BatchNor (None, 256)          1024        flatten_2[0][0]                  
# __________________________________________________________________________________________________
# concatenate_2 (Concatenate)     (None, 1512)         0           concatenate_1[0][0]              
#                                                                  batch_normalization_2[0][0]      
# __________________________________________________________________________________________________
# layer1 (Dense)                  (None, 750)          1134750     concatenate_2[0][0]              
# __________________________________________________________________________________________________
# batch_normalization_3 (BatchNor (None, 750)          3000        layer1[0][0]                     
# __________________________________________________________________________________________________
# layer2 (Dense)                  (None, 350)          262850      batch_normalization_3[0][0]      
# __________________________________________________________________________________________________
# batch_normalization_4 (BatchNor (None, 350)          1400        layer2[0][0]                     
# __________________________________________________________________________________________________
# layer3 (Dense)                  (None, 96)           33696       batch_normalization_4[0][0]      
# __________________________________________________________________________________________________
# batch_normalization_5 (BatchNor (None, 96)           384         layer3[0][0]                     
# __________________________________________________________________________________________________
# dropout_1 (Dropout)             (None, 96)           0           batch_normalization_5[0][0]      
# __________________________________________________________________________________________________
# prediction (Dense)              (None, 1)            97          dropout_1[0][0]                  
# ==================================================================================================
# Total params: 7,070,225
# Trainable params: 7,066,809
# Non-trainable params: 3,416
# __________________________________________________________________________________________________
# None
# 
# Performing k-fold 1
# Init: Recall = 0.0051, Jaccard score = 0.0016
…
aset=1, topk=10, verbose=1) 
# The best NeuMF model will be saved to Pretrain/_MLP_8_[512,750,350,96]_1569394805.h5
--weights_path: Pretrain/_MLP_8_[512,750,350,96]_1569394805.h5
# Load data done [1.8 s]. #user=20000, #item=2000, #train=161729, #test=eval_recall
# __________________________________________________________________________________________________
# Layer (type)                    Output Shape         Param #     Connected to                     
# ==================================================================================================
# user_input (InputLayer)         (None, 1)            0                                            
# __________________________________________________________________________________________________
# user_embedding (Embedding)      (None, 1, 256)       5120000     user_input[0][0]                 
# __________________________________________________________________________________________________
# item_input (InputLayer)         (None, 1)            0                                            
# __________________________________________________________________________________________________
# flatten_1 (Flatten)             (None, 256)          0           user_embedding[0][0]             
# __________________________________________________________________________________________________
# item_embedding (Embedding)      (None, 1, 256)       512000      item_input[0][0]                 
# __________________________________________________________________________________________________
# batch_normalization_1 (BatchNor (None, 256)          1024        flatten_1[0][0]                  
# __________________________________________________________________________________________________
# flatten_2 (Flatten)             (None, 256)          0           item_embedding[0][0]             
# __________________________________________________________________________________________________
# dropout_1 (Dropout)             (None, 256)          0           batch_normalization_1[0][0]      
# __________________________________________________________________________________________________
# user_feature_input (InputLayer) (None, 1000)         0                                            
# __________________________________________________________________________________________________
# batch_normalization_2 (BatchNor (None, 256)          1024        flatten_2[0][0]                  
# __________________________________________________________________________________________________
# concatenate_1 (Concatenate)     (None, 1256)         0           dropout_1[0][0]                  
#                                                                  user_feature_input[0][0]         
# __________________________________________________________________________________________________
# dropout_2 (Dropout)             (None, 256)          0           batch_normalization_2[0][0]      
# __________________________________________________________________________________________________
# concatenate_2 (Concatenate)     (None, 1512)         0           concatenate_1[0][0]              
#                                                                  dropout_2[0][0]                  
# __________________________________________________________________________________________________
# layer1 (Dense)                  (None, 750)          1134750     concatenate_2[0][0]              
# __________________________________________________________________________________________________
# dropout_3 (Dropout)             (None, 750)          0           layer1[0][0]                     
# __________________________________________________________________________________________________
# layer2 (Dense)                  (None, 350)          262850      dropout_3[0][0]                  
# __________________________________________________________________________________________________
# dropout_4 (Dropout)             (None, 350)          0           layer2[0][0]                     
# __________________________________________________________________________________________________
# layer3 (Dense)                  (None, 96)           33696       dropout_4[0][0]                  
# __________________________________________________________________________________________________
# dropout_5 (Dropout)             (None, 96)           0           layer3[0][0]                     
# __________________________________________________________________________________________________
# prediction (Dense)              (None, 1)            97          dropout_5[0][0]                  
# ==================================================================================================
# Total params: 7,065,441
# Trainable params: 7,064,417
# Non-trainable params: 1,024
# __________________________________________________________________________________________________
# None
# 
# Performing k-fold 1
# Init: Recall = 0.0055, Jaccard score = 0.0017
…
