…
test_dataset=1, topk=10, verbose=1) 
# The best NeuMF model will be saved to Pretrain/_MLP_8_[512,750,96]_1569479962.h5
--weights_path: Pretrain/_MLP_8_[512,750,96]_1569479962.h5
# Load data done [1.7 s]. #user=20000, #item=2000, #train=161729, #test=eval_recall
# __________________________________________________________________________________________________
# Layer (type)                    Output Shape         Param #     Connected to                     
# ==================================================================================================
# user_input (InputLayer)         (None, 1)            0                                            
# __________________________________________________________________________________________________
# user_embedding (Embedding)      (None, 1, 256)       5120000     user_input[0][0]                 
# __________________________________________________________________________________________________
# item_input (InputLayer)         (None, 1)            0                                            
# __________________________________________________________________________________________________
# flatten_5 (Flatten)             (None, 256)          0           user_embedding[0][0]             
# __________________________________________________________________________________________________
# item_embedding (Embedding)      (None, 1, 256)       512000      item_input[0][0]                 
# __________________________________________________________________________________________________
# bn_user (BatchNormalization)    (None, 256)          1024        flatten_5[0][0]                  
# __________________________________________________________________________________________________
# flatten_6 (Flatten)             (None, 256)          0           item_embedding[0][0]             
# __________________________________________________________________________________________________
# dropout_9 (Dropout)             (None, 256)          0           bn_user[0][0]                    
# __________________________________________________________________________________________________
# user_feature_input (InputLayer) (None, 1000)         0                                            
# __________________________________________________________________________________________________
# bn_item (BatchNormalization)    (None, 256)          1024        flatten_6[0][0]                  
# __________________________________________________________________________________________________
# concatenate_5 (Concatenate)     (None, 1256)         0           dropout_9[0][0]                  
#                                                                  user_feature_input[0][0]         
# __________________________________________________________________________________________________
# dropout_10 (Dropout)            (None, 256)          0           bn_item[0][0]                    
# __________________________________________________________________________________________________
# concatenate_6 (Concatenate)     (None, 1512)         0           concatenate_5[0][0]              
#                                                                  dropout_10[0][0]                 
# __________________________________________________________________________________________________
# layer1 (Dense)                  (None, 750)          1134750     concatenate_6[0][0]              
# __________________________________________________________________________________________________
# dropout_11 (Dropout)            (None, 750)          0           layer1[0][0]                     
# __________________________________________________________________________________________________
# layer2 (Dense)                  (None, 96)           72096       dropout_11[0][0]                 
# __________________________________________________________________________________________________
# dropout_12 (Dropout)            (None, 96)           0           layer2[0][0]                     
# __________________________________________________________________________________________________
# prediction (Dense)              (None, 1)            97          dropout_12[0][0]                 
# ==================================================================================================
# Total params: 6,840,991
# Trainable params: 6,839,967
# Non-trainable params: 1,024
# __________________________________________________________________________________________________
# None
# 
# Performing k-fold 1
# Init: Recall = 0.0971, Jaccard score = 0.0305
…
